…
08/02/2021 18:20:14 VERBOSE  __________________________________________________________________________________________________
08/02/2021 18:20:14 VERBOSE  Model: ""encoder""
08/02/2021 18:20:14 VERBOSE  _________________________________________________________________
08/02/2021 18:20:14 VERBOSE  Layer (type)                 Output Shape              Param #
08/02/2021 18:20:14 VERBOSE  =================================================================
08/02/2021 18:20:14 VERBOSE  input_1 (InputLayer)         [(None, 64, 64, 3)]       0
08/02/2021 18:20:14 VERBOSE  _________________________________________________________________
08/02/2021 18:20:14 VERBOSE  conv_128_0_conv2d (Conv2D)   (None, 32, 32, 128)       9728
08/02/2021 18:20:14 VERBOSE  _________________________________________________________________
08/02/2021 18:20:14 VERBOSE  conv_128_0_leakyrelu (LeakyR (None, 32, 32, 128)       0
08/02/2021 18:20:14 VERBOSE  _________________________________________________________________
08/02/2021 18:20:14 VERBOSE  conv_256_0_conv2d (Conv2D)   (None, 16, 16, 256)       819456
08/02/2021 18:20:14 VERBOSE  _________________________________________________________________
08/02/2021 18:20:14 VERBOSE  conv_256_0_leakyrelu (LeakyR (None, 16, 16, 256)       0
08/02/2021 18:20:14 VERBOSE  _________________________________________________________________
08/02/2021 18:20:14 VERBOSE  conv_512_0_conv2d (Conv2D)   (None, 8, 8, 512)         3277312
08/02/2021 18:20:14 VERBOSE  _________________________________________________________________
08/02/2021 18:20:14 VERBOSE  conv_512_0_leakyrelu (LeakyR (None, 8, 8, 512)         0
08/02/2021 18:20:14 VERBOSE  _________________________________________________________________
08/02/2021 18:20:14 VERBOSE  conv_1024_0_conv2d (Conv2D)  (None, 4, 4, 1024)        13108224
08/02/2021 18:20:14 VERBOSE  _________________________________________________________________
08/02/2021 18:20:14 VERBOSE  conv_1024_0_leakyrelu (Leaky (None, 4, 4, 1024)        0
08/02/2021 18:20:14 VERBOSE  _________________________________________________________________
08/02/2021 18:20:14 VERBOSE  flatten (Flatten)            (None, 16384)             0
08/02/2021 18:20:14 VERBOSE  _________________________________________________________________
08/02/2021 18:20:14 VERBOSE  dense (Dense)                (None, 1024)              16778240
08/02/2021 18:20:14 VERBOSE  _________________________________________________________________
08/02/2021 18:20:14 VERBOSE  dense_1 (Dense)              (None, 16384)             16793600
08/02/2021 18:20:14 VERBOSE  _________________________________________________________________
08/02/2021 18:20:14 VERBOSE  reshape (Reshape)            (None, 4, 4, 1024)        0
08/02/2021 18:20:14 VERBOSE  _________________________________________________________________
08/02/2021 18:20:14 VERBOSE  upscale_512_0_conv2d_conv2d  (None, 4, 4, 2048)        18876416
08/02/2021 18:20:14 VERBOSE  _________________________________________________________________
08/02/2021 18:20:14 VERBOSE  upscale_512_0_conv2d_leakyre (None, 4, 4, 2048)        0
08/02/2021 18:20:14 VERBOSE  _________________________________________________________________
08/02/2021 18:20:14 VERBOSE  upscale_512_0_pixelshuffler  (None, 8, 8, 512)         0
08/02/2021 18:20:14 VERBOSE  =================================================================
08/02/2021 18:20:14 VERBOSE  Total params: 69,662,976
08/02/2021 18:20:14 VERBOSE  Trainable params: 69,662,976
08/02/2021 18:20:14 VERBOSE  Non-trainable params: 0
08/02/2021 18:20:14 VERBOSE  _________________________________________________________________
08/02/2021 18:20:14 VERBOSE  Model: ""decoder_a""
08/02/2021 18:20:14 VERBOSE  _________________________________________________________________
08/02/2021 18:20:14 VERBOSE  Layer (type)                 Output Shape              Param #
08/02/2021 18:20:14 VERBOSE  =================================================================
08/02/2021 18:20:14 VERBOSE  input_2 (InputLayer)         [(None, 8, 8, 512)]       0
08/02/2021 18:20:14 VERBOSE  _________________________________________________________________
08/02/2021 18:20:14 VERBOSE  upscale_256_0_conv2d_conv2d  (None, 8, 8, 1024)        4719616
08/02/2021 18:20:14 VERBOSE  _________________________________________________________________
08/02/2021 18:20:14 VERBOSE  upscale_256_0_conv2d_leakyre (None, 8, 8, 1024)        0
08/02/2021 18:20:14 VERBOSE  _________________________________________________________________
08/02/2021 18:20:14 VERBOSE  upscale_256_0_pixelshuffler  (None, 16, 16, 256)       0
08/02/2021 18:20:14 VERBOSE  _________________________________________________________________
08/02/2021 18:20:14 VERBOSE  upscale_128_0_conv2d_conv2d  (None, 16, 16, 512)       1180160
08/02/2021 18:20:14 VERBOSE  _________________________________________________________________
08/02/2021 18:20:14 VERBOSE  upscale_128_0_conv2d_leakyre (None, 16, 16, 512)       0
08/02/2021 18:20:14 VERBOSE  _________________________________________________________________
08/02/2021 18:20:14 VERBOSE  upscale_128_0_pixelshuffler  (None, 32, 32, 128)       0
08/02/2021 18:20:14 VERBOSE  _________________________________________________________________
08/02/2021 18:20:14 VERBOSE  upscale_64_0_conv2d_conv2d ( (None, 32, 32, 256)       295168
08/02/2021 18:20:14 VERBOSE  _________________________________________________________________
08/02/2021 18:20:14 VERBOSE  upscale_64_0_conv2d_leakyrel (None, 32, 32, 256)       0
08/02/2021 18:20:14 VERBOSE  _________________________________________________________________
08/02/2021 18:20:14 VERBOSE  upscale_64_0_pixelshuffler ( (None, 64, 64, 64)        0
08/02/2021 18:20:14 VERBOSE  _________________________________________________________________
08/02/2021 18:20:14 VERBOSE  face_out_a_conv2d (Conv2D)   (None, 64, 64, 3)         4803
08/02/2021 18:20:14 VERBOSE  _________________________________________________________________
08/02/2021 18:20:14 VERBOSE  face_out_a (Activation)      (None, 64, 64, 3)         0
08/02/2021 18:20:14 VERBOSE  =================================================================
08/02/2021 18:20:14 VERBOSE  Total params: 6,199,747
08/02/2021 18:20:14 VERBOSE  Trainable params: 6,199,747
08/02/2021 18:20:14 VERBOSE  Non-trainable params: 0
08/02/2021 18:20:14 VERBOSE  _________________________________________________________________
08/02/2021 18:20:14 VERBOSE  Model: ""decoder_b""
…
