…
Normally now, after doing `torch.cuda.set_device(1) `, your `defaults.device` should point to that device.",fixed since please try recent version reopen problem normally point device,issue,negative,positive,neutral,neutral,positive,positive
476264091,Found the reason: the ReLU activation was the same object repeated and not different objects. Fixed now.,found reason activation object repeated different fixed,issue,negative,positive,neutral,neutral,positive,positive
476244082,"Just noticed that ReLU does not show up `learn.layer_groups` as well.

```python
learn = tabular_learner(data,layers=[300,200,100], ps=[.6]*3)
learn.layer_groups
```
```text
[Sequential(
   (0): ModuleList()
   (1): Dropout(p=0.0)
   (2): BatchNorm1d(39, eps=1e-05, momentum=0.1, affine=True, track_running_stats=True)
   (3): Linear(in_features=39, out_features=300, bias=True)
   (4): ReLU(inplace)
   (5): BatchNorm1d(300, eps=1e-05, momentum=0.1, affine=True, track_running_stats=True)
   (6): Dropout(p=0.6)
   (7): Linear(in_features=300, out_features=200, bias=True)
   (8): BatchNorm1d(200, eps=1e-05, momentum=0.1, affine=True, track_running_stats=True)
   (9): Dropout(p=0.6)
   (10): Linear(in_features=200, out_features=100, bias=True)
   (11): BatchNorm1d(100, eps=1e-05, momentum=0.1, affine=True, track_running_stats=True)
   (12): Dropout(p=0.6)
   (13): Linear(in_features=100, out_features=1, bias=True)
 )]
```
 As you pointed out  the ReLU modules show up in `learn.model` printout.
```python
learn.model
```
```textTabularModel(
  (embeds): ModuleList()
  (emb_drop): Dropout(p=0.0)
  (bn_cont): BatchNorm1d(39, eps=1e-05, momentum=0.1, affine=True, track_running_stats=True)
  (layers): Sequential(
    (0): Linear(in_features=39, out_features=300, bias=True)
    (1): ReLU(inplace)
    (2): BatchNorm1d(300, eps=1e-05, momentum=0.1, affine=True, track_running_stats=True)
    (3): Dropout(p=0.6)
    (4): Linear(in_features=300, out_features=200, bias=True)
    (5): ReLU(inplace)
    (6): BatchNorm1d(200, eps=1e-05, momentum=0.1, affine=True, track_running_stats=True)
    (7): Dropout(p=0.6)
    (8): Linear(in_features=200, out_features=100, bias=True)
    (9): ReLU(inplace)
    (10): BatchNorm1d(100, eps=1e-05, momentum=0.1, affine=True, track_running_stats=True)
    (11): Dropout(p=0.6)
    (12): Linear(in_features=100, out_features=1, bias=True)
  )
)


```",show well python learn data text sequential dropout linear dropout linear dropout linear dropout linear pointed show python dropout sequential linear dropout linear dropout linear dropout linear,issue,negative,neutral,neutral,neutral,neutral,neutral
476195240,"Note that the bug is in `Learner.summary`. I can reproduce but when I type `learn.model`, the ReLUs are all there. I don't know why they aren't printed in the summary, will investigate.",note bug reproduce type know printed summary investigate,issue,negative,neutral,neutral,neutral,neutral,neutral
…
