…
WARNING:absl:ring_buffer_size_in_time_dim overwritten by the passed-in value: 16
WARNING:absl:ring_buffer_size_in_time_dim overwritten by the passed-in value: 16
WARNING:absl:ring_buffer_size_in_time_dim overwritten by the passed-in value: 16
_________________________________________________________________
 Layer (type)                Output Shape              Param #   
=================================================================
 input_1 (InputLayer)        [(1, 16000)]              0         
                                                                 
 speech_features (SpeechFeat  (1, 98, 40)              0         
 ures)                                                           
                                                                 
 tf_op_layer_ExpandDims (Ten  [(1, 98, 40, 1)]         0         
 sorFlowOpLayer)                                                 
                                                                 
 stream (Stream)             (1, 98, 20, 16)           416       
                                                                 
 transition_block (Transitio  (1, 98, 20, 8)           464       
 nBlock)                                                         
                                                                 
 normal_block (NormalBlock)  (1, 98, 20, 8)            304       
                                                                 
 normal_block_1 (NormalBlock  (1, 98, 20, 8)           304       
 )                                                               
                                                                 
 transition_block_1 (Transit  (1, 98, 10, 12)          648       
 ionBlock)                                                       
                                                                 
 normal_block_2 (NormalBlock  (1, 98, 10, 12)          504       
 )                                                               
                                                                 
 normal_block_3 (NormalBlock  (1, 98, 10, 12)          504       
 )                                                               
                                                                 
 transition_block_2 (Transit  (1, 98, 5, 16)           992       
 ionBlock)                                                       
                                                                 
 normal_block_4 (NormalBlock  (1, 98, 5, 16)           736       
 )                                                               
                                                                 
 normal_block_5 (NormalBlock  (1, 98, 5, 16)           736       
 )                                                               
                                                                 
 normal_block_6 (NormalBlock  (1, 98, 5, 16)           736       
 )                                                               
                                                                 
 normal_block_7 (NormalBlock  (1, 98, 5, 16)           736       
 )                                                               
                                                                 
 transition_block_3 (Transit  (1, 98, 5, 20)           1400      
 ionBlock)                                                       
                                                                 
 normal_block_8 (NormalBlock  (1, 98, 5, 20)           1000      
 )                                                               
                                                                 
 normal_block_9 (NormalBlock  (1, 98, 5, 20)           1000      
 )                                                               
                                                                 
 normal_block_10 (NormalBloc  (1, 98, 5, 20)           1000      
 k)                                                              
                                                                 
 normal_block_11 (NormalBloc  (1, 98, 5, 20)           1000      
 k)                                                              
                                                                 
 stream_33 (Stream)          (1, 98, 5, 20)            520       
                                                                 
 tf_op_layer_Mean (TensorFlo  [(1, 98, 1, 20)]         0         
 wOpLayer)                                                       
                                                                 
 conv2d_21 (Conv2D)          (1, 98, 1, 32)            640       
                                                                 
 stream_34 (Stream)          (1, 1, 1, 32)             0         
                                                                 
 conv2d_22 (Conv2D)          (1, 1, 1, 12)             384       
                                                                 
 tf_op_layer_Squeeze (Tensor  [(1, 12)]                0         
 FlowOpLayer)                                                    
                                                                 
=================================================================
Total params: 14,024
Trainable params: 11,032
Non-trainable params: 2,992
…
WARNING:tensorflow:Layer cell will not use cuDNN kernels since it doesn't meet the criteria. It will use a generic GPU kernel as fallback when running on GPU.
W0515 01:51:18.979778 140248402396992 recurrent_v2.py:413] Layer cell will not use cuDNN kernels since it doesn't meet the criteria. It will use a generic GPU kernel as fallback when running on GPU.
Model: ""model""
_________________________________________________________________
Layer (type)                 Output Shape              Param #   
=================================================================
input_1 (InputLayer)         [(100, 16000)]            0         
_________________________________________________________________
speech_features (SpeechFeatu (100, 49, 20)             0         
_________________________________________________________________
tf_op_layer_ExpandDims (Tens [(100, 49, 20, 1)]        0         
_________________________________________________________________
stream (Stream)              (100, 47, 18, 16)         160       
_________________________________________________________________
stream_1 (Stream)            (100, 43, 16, 16)         3856      
_________________________________________________________________
reshape (Reshape)            (100, 43, 256)            0         
_________________________________________________________________
gru (GRU)                    (100, 1, 256)             394752    
_________________________________________________________________
stream_2 (Stream)            (100, 256)                0         
_________________________________________________________________
dropout (Dropout)            (100, 256)                0         
_________________________________________________________________
dense (Dense)                (100, 128)                32896     
_________________________________________________________________
dense_1 (Dense)              (100, 256)                33024     
_________________________________________________________________
dense_2 (Dense)              (100, 3)                  771       
=================================================================
Total params: 465,459
Trainable params: 465,459
Non-trainable params: 0
_________________________________________________________________
I0515 01:51:19.321968 140248402396992 train.py:71] None
I0515 01:51:19.619409 140248402396992 train.py:107] Training from step: 1 
2021-05-15 01:51:21.140477: W tensorflow/c/c_api.cc:335] 
…
I saw [ds_tc_resnet.py](https://github.com/google-research/google-research/blob/master/kws_streaming/models/ds_tc_resnet.py) and found `kernel_size=(kernel_size, 1)` but in the case of `cnn_one_fpool3`, I guessed (1, 33) was good.

and the model summary:
```
_________________________________________________________________
Layer (type)                 Output Shape              Param #   
=================================================================
input_1 (InputLayer)         [(100, 16000)]            0         
_________________________________________________________________
speech_features (SpeechFeatu (100, 32, 40)             0         
_________________________________________________________________
tf_op_layer_ExpandDims (Tens [(100, 32, 40, 1)]        0         
_________________________________________________________________
conv2d (Conv2D)              (100, 1, 33, 54)          13878     
_________________________________________________________________
max_pooling2d (MaxPooling2D) (100, 1, 33, 54)          0         
_________________________________________________________________
depthwise_conv2d (DepthwiseC (100, 1, 1, 54)           1836      
_________________________________________________________________
conv2d_1 (Conv2D)            (100, 1, 1, 32)           1760      
_________________________________________________________________
dropout (Dropout)            (100, 1, 1, 32)           0         
_________________________________________________________________
flatten (Flatten)            (100, 32)                 0         
_________________________________________________________________
dense (Dense)                (100, 128)                4224      
_________________________________________________________________
dense_1 (Dense)              (100, 128)                16512     
_________________________________________________________________
flatten_1 (Flatten)          (100, 128)                0         
_________________________________________________________________
dense_2 (Dense)              (100, 12)                 1548      
=================================================================
Total params: 39,758
Trainable params: 39,758
Non-trainable params: 0
_________________________________________________________________
* the last layer's output is different from the table above because this is the model for 12 labels.
```

`depthwise_conv2d` and `conv2d_1` should work as the linear layer but the number of parameters are far from the paper.
…
he group in `tf.keras.layer.conv2D`. In addition, since I would like to try ""group pointwise convolution + depthwise convolution"", I didn't just use ""separable convolution"" to implement mobilenet version of TCN.


> **V2.0**
> _________________________________________________________________
> Layer (type)                 Output Shape              Param #   
> =================================================================
> input_1 (InputLayer)         [(128, 16000)]            0         
> _________________________________________________________________
> speech_features (SpeechFeatu (128, 49, 30)             0         
> _________________________________________________________________
> tf_op_layer_ExpandDims (Tens [(128, 49, 30, 1)]        0         
> _________________________________________________________________
> tf_op_layer_Reshape (TensorF [(128, 49, 1, 30)]        0         
> _________________________________________________________________
> conv2d (Conv2D)              (128, 49, 1, 36)          3276      
> _________________________________________________________________
> batch_normalization (BatchNo (128, 49, 1, 36)          144       
> _________________________________________________________________
> activation (Activation)      (128, 49, 1, 36)          0         
> _________________________________________________________________
> conv2d_1 (Conv2D)            (128, 49, 1, 36)          3924      
> _________________________________________________________________
> batch_normalization_1 (Batch (128, 49, 1, 36)          144       
> _________________________________________________________________
> activation_1 (Activation)    (128, 49, 1, 36)          0         
> _________________________________________________________________
> conv2d_2 (Conv2D)            (128, 49, 1, 36)          3924      
> _________________________________________________________________
> batch_normalization_2 (Batch (128, 49, 1, 36)          144       
> _________________________________________________________________
> activation_2 (Activation)    (128, 49, 1, 36)          0         
> _________________________________________________________________
> conv2d_3 (Conv2D)            (128, 49, 1, 36)          3924      
> _________________________________________________________________
> batch_normalization_3 (Batch (128, 49, 1, 36)          144       
> _________________________________________________________________
> activation_3 (Activation)    (128, 49, 1, 36)          0         
> _________________________________________________________________
> conv2d_4 (Conv2D)            (128, 49, 1, 36)          3924      
> _________________________________________________________________
> batch_normalization_4 (Batch (128, 49, 1, 36)          144       
> _________________________________________________________________
> activation_4 (Activation)    (128, 49, 1, 36)          0         
> _________________________________________________________________
> conv2d_5 (Conv2D)            (128, 49, 1, 36)          3924      
> _________________________________________________________________
> batch_normalization_5 (Batch (128, 49, 1, 36)          144       
> _________________________________________________________________
> activation_5 (Activation)    (128, 49, 1, 36)          0         
> _________________________________________________________________
> conv2d_6 (Conv2D)            (128, 49, 1, 36)          3924      
> _________________________________________________________________
> batch_normalization_6 (Batch (128, 49, 1, 36)          144       
> _________________________________________________________________
> activation_6 (Activation)    (128, 49, 1, 36)          0         
> _________________________________________________________________
> average_pooling2d (AveragePo (128, 1, 1, 36)           0         
> _________________________________________________________________
> dropout (Dropout)            (128, 1, 1, 36)           0         
> _________________________________________________________________
> conv2d_7 (Conv2D)            (128, 1, 1, 12)           444       
> _________________________________________________________________
> tf_op_layer_Reshape_1 (Tenso [(128, 12)]               0         
> _________________________________________________________________
> =================================================================
> Total params: 28,272
> Trainable params: 27,768
> Non-trainable params: 504
> _________________________________________________________________

> **V2.2**
> _________________________________________________________________
> Layer (type)                 Output Shape              Param #   
> =================================================================
> input_1 (InputLayer)         [(128, 16000)]            0         
> _________________________________________________________________
> speech_features (SpeechFeatu (128, 49, 30)             0         
> _________________________________________________________________
> tf_op_layer_ExpandDims (Tens [(128, 49, 30, 1)]        0         
> _________________________________________________________________
> tf_op_layer_Reshape (TensorF [(128, 49, 1, 30)]        0         
> _________________________________________________________________
> conv2d (Conv2D)              (128, 49, 1, 36)          3276      
> _________________________________________________________________
> batch_normalization (BatchNo (128, 49, 1, 36)          144       
> _________________________________________________________________
> activation (Activation)      (128, 49, 1, 36)          0         
> _________________________________________________________________
> depthwise_conv2d (DepthwiseC (128, 49, 1, 36)          144       
> _________________________________________________________________
> conv2d_1 (Conv2D)            (128, 49, 1, 36)          1332      
> _________________________________________________________________
> batch_normalization_1 (Batch (128, 49, 1, 36)          144       
> _________________________________________________________________
> activation_1 (Activation)    (128, 49, 1, 36)          0         
> _________________________________________________________________
> depthwise_conv2d_1 (Depthwis (128, 49, 1, 36)          144       
> _________________________________________________________________
> conv2d_2 (Conv2D)            (128, 49, 1, 36)          1332      
> _________________________________________________________________
> batch_normalization_2 (Batch (128, 49, 1, 36)          144       
> _________________________________________________________________
> activation_2 (Activation)    (128, 49, 1, 36)          0         
> _________________________________________________________________
> depthwise_conv2d_2 (Depthwis (128, 49, 1, 36)          144       
> _________________________________________________________________
> conv2d_3 (Conv2D)            (128, 49, 1, 36)          1332      
> _________________________________________________________________
> batch_normalization_3 (Batch (128, 49, 1, 36)          144       
> _________________________________________________________________
> activation_3 (Activation)    (128, 49, 1, 36)          0         
> _________________________________________________________________
> depthwise_conv2d_3 (Depthwis (128, 49, 1, 36)          144       
> _________________________________________________________________
> conv2d_4 (Conv2D)            (128, 49, 1, 36)          1332      
> _________________________________________________________________
> batch_normalization_4 (Batch (128, 49, 1, 36)          144       
> _________________________________________________________________
> activation_4 (Activation)    (128, 49, 1, 36)          0         
> _________________________________________________________________
> depthwise_conv2d_4 (Depthwis (128, 49, 1, 36)          144       
> _________________________________________________________________
> conv2d_5 (Conv2D)            (128, 49, 1, 36)          1332      
> _________________________________________________________________
> batch_normalization_5 (Batch (128, 49, 1, 36)          144       
> _________________________________________________________________
> activation_5 (Activation)    (128, 49, 1, 36)          0         
> _________________________________________________________________
> depthwise_conv2d_5 (Depthwis (128, 49, 1, 36)          144       
> _________________________________________________________________
> conv2d_6 (Conv2D)            (128, 49, 1, 36)          1332      
> _________________________________________________________________
> batch_normalization_6 (Batch (128, 49, 1, 36)          144       
> _________________________________________________________________
> activation_6 (Activation)    (128, 49, 1, 36)          0         
> _________________________________________________________________
> average_pooling2d (AveragePo (128, 1, 1, 36)           0         
> _________________________________________________________________
> dropout (Dropout)            (128, 1, 1, 36)           0         
> _________________________________________________________________
> conv2d_7 (Conv2D)            (128, 1, 1, 12)           444       
> _________________________________________________________________
> tf_op_layer_Reshape_1 (Tenso [(128, 12)]               0         
> _________________________________________________________________
> =================================================================
> Total params: 13,584
> Trainable params: 13,080
> Non-trainable params: 504
> _________________________________________________________________

> **V2.6**
> _________________________________________________________________
> Layer (type)                 Output Shape              Param #   
> =================================================================
> input_1 (InputLayer)         [(128, 16000)]            0         
> _________________________________________________________________
> feature_layer (SpeechFeature (128, 49, 30)             0         
> _________________________________________________________________
> tf_op_layer_ExpandDims (Tens [(128, 49, 30, 1)]        0         
> _________________________________________________________________
> tf_op_layer_Reshape (TensorF [(128, 49, 1, 30)]        0         
> _________________________________________________________________
> conv0 (Conv2D)               (128, 49, 1, 24)          744       
> _________________________________________________________________
> bn0 (BatchNormalization)     (128, 49, 1, 24)          96        
> _________________________________________________________________
> act0 (Activation)            (128, 49, 1, 24)          0         
> _________________________________________________________________
> dw1 (DepthwiseConv2D)        (128, 49, 1, 24)          144       
> _________________________________________________________________
> pw1 (Conv2D)                 (128, 49, 1, 24)          600       
> _________________________________________________________________
> bn1 (BatchNormalization)     (128, 49, 1, 24)          96        
> _________________________________________________________________
> act2 (Activation)            (128, 49, 1, 24)          0         
> _________________________________________________________________
> dw2 (DepthwiseConv2D)        (128, 49, 1, 24)          144       
> _________________________________________________________________
> pw2 (Conv2D)                 (128, 49, 1, 24)          600       
> _________________________________________________________________
> bn2 (BatchNormalization)     (128, 49, 1, 24)          96        
> _________________________________________________________________
> act3 (Activation)            (128, 49, 1, 24)          0         
> _________________________________________________________________
> dw3 (DepthwiseConv2D)        (128, 49, 1, 24)          144       
> _________________________________________________________________
> pw3 (Conv2D)                 (128, 49, 1, 24)          600       
> _________________________________________________________________
> bn3 (BatchNormalization)     (128, 49, 1, 24)          96        
> _________________________________________________________________
> act4 (Activation)            (128, 49, 1, 24)          0         
> _________________________________________________________________
> dw4 (DepthwiseConv2D)        (128, 49, 1, 24)          144       
> _________________________________________________________________
> pw4 (Conv2D)                 (128, 49, 1, 24)          600       
> _________________________________________________________________
> bn4 (BatchNormalization)     (128, 49, 1, 24)          96        
> _________________________________________________________________
> act5 (Activation)            (128, 49, 1, 24)          0         
> _________________________________________________________________
> pool (AveragePooling2D)      (128, 1, 1, 24)           0         
> _________________________________________________________________
> dropout (Dropout)            (128, 1, 1, 24)           0         
> _________________________________________________________________
> last_conv (Conv2D)           (128, 1, 1, 12)           300       
> _________________________________________________________________
> tf_op_layer_reshape_1 (Tenso [(128, 12)]               0      
> _________________________________________________________________   
> =================================================================
> Total params: 4,500
> Trainable params: 4,260
> Non-trainable params: 240
> __________________________________________
…
