…
-Did you find a solution to your problem. I am trying to do the same and would appreciate advice.

",similar problem wondering help trying use assume could somehow range sure better way dealing data feel going losing information think train data somehow float data range range requirement help thank advance find solution problem trying would appreciate advice,issue,positive,positive,positive,positive,positive,positive
817608662,"I meet the same error. It seems that there are dropout layers when training but no dropout layers when test.
(10): ResnetBlock(
        (conv_block): Sequential(
          (0): ReflectionPad2d((1, 1, 1, 1))
          (1): Conv2d(256, 256, kernel_size=(3, 3), stride=(1, 1), bias=False)
          (2): BatchNorm2d(256, eps=1e-05, momentum=0.1, affine=True, track_running_stats=True)
          (3): ReLU(inplace=True)
          (4): Dropout(p=0.5, inplace=False)
          (5): ReflectionPad2d((1, 1, 1, 1))
          (6): Conv2d(256, 256, kernel_size=(3, 3), stride=(1, 1), bias=False)
          (7): BatchNorm2d(256, eps=1e-05, momentum=0.1, affine=True, track_running_stats=True)
        )
      )
(10): ResnetBlock(
        (conv_block): Sequential(
          (0): ReflectionPad2d((1, 1, 1, 1))
          (1): Conv2d(256, 256, kernel_size=(3, 3), stride=(1, 1), bias=False)
          (2): BatchNorm2d(256, eps=1e-05, momentum=0.1, affine=True, track_running_stats=True)
          (3): ReLU(inplace=True)
          (4): ReflectionPad2d((1, 1, 1, 1))
          (5): Conv2d(256, 256, kernel_size=(3, 3), stride=(1, 1), bias=False)
          (6): BatchNorm2d(256, eps=1e-05, momentum=0.1, affine=True, track_running_stats=True)
        )
      )",meet error dropout training dropout test sequential dropout sequential,issue,negative,neutral,neutral,neutral,neutral,neutral
816601773,"I have experienced similar problems. E.g., the training stopped after the first completed epoch without exiting - that was after executing train.py in a jobscript on a server. Other times it was fine.",experienced similar training stopped first epoch without server time fine,issue,negative,positive,positive,positive,positive,positive
…
 Conv2d(100, 1, kernel_size=(7, 7), stride=(1, 1))
which means it takes an 1-channel image as input, and produces an 1-channel image. 
I wonder if you have changed the ndf/ngf during training/test. 
It would be great if can also print the network for your training script. ",fine image input image wonder would great also print network training script,issue,positive,positive,positive,positive,positive,positive
342020626,"Here is the output:

 cycle_gan
initialization method [xavier]
initialization method [xavier]
ResnetGenerator (
  (model): Sequential (
    (0): ReflectionPad2d (3, 3, 3, 3)
    (1): Conv2d(1, 100, kernel_size=(7, 7), stride=(1, 1))
    (2): InstanceNorm2d(100, eps=1e-05, momentum=0.1, affine=False)
    (3): ReLU (inplace)
    (4): Conv2d(100, 200, kernel_size=(3, 3), stride=(2, 2), padding=(1, 1))
    (5): InstanceNorm2d(200, eps=1e-05, momentum=0.1, affine=False)
    (6): ReLU (inplace)
    (7): Conv2d(200, 400, kernel_size=(3, 3), stride=(2, 2), padding=(1, 1))
    (8): InstanceNorm2d(400, eps=1e-05, momentum=0.1, affine=False)
    (9): ReLU (inplace)
    (10): ResnetBlock (
      (conv_block): Sequential (
        (0): ReflectionPad2d (1, 1, 1, 1)
        (1): Conv2d(400, 400, kernel_size=(3, 3), stride=(1, 1))
        (2): InstanceNorm2d(400, eps=1e-05, momentum=0.1, affine=False)
        (3): ReLU (inplace)
        (4): ReflectionPad2d (1, 1, 1, 1)
        (5): Conv2d(400, 400, kernel_size=(3, 3), stride=(1, 1))
        (6): InstanceNorm2d(400, eps=1e-05, momentum=0.1, affine=False)
      )
    )
    (11): ResnetBlock (
      (conv_block): Sequential (
        (0): ReflectionPad2d (1, 1, 1, 1)
        (1): Conv2d(400, 400, kernel_size=(3, 3), stride=(1, 1))
        (2): InstanceNorm2d(400, eps=1e-05, momentum=0.1, affine=False)
        (3): ReLU (inplace)
        (4): ReflectionPad2d (1, 1, 1, 1)
        (5): Conv2d(400, 400, kernel_size=(3, 3), stride=(1, 1))
        (6): InstanceNorm2d(400, eps=1e-05, momentum=0.1, affine=False)
      )
    )
    (12): ResnetBlock (
      (conv_block): Sequential (
        (0): ReflectionPad2d (1, 1, 1, 1)
        (1): Conv2d(400, 400, kernel_size=(3, 3), stride=(1, 1))
        (2): InstanceNorm2d(400, eps=1e-05, momentum=0.1, affine=False)
        (3): ReLU (inplace)
        (4): ReflectionPad2d (1, 1, 1, 1)
        (5): Conv2d(400, 400, kernel_size=(3, 3), stride=(1, 1))
        (6): InstanceNorm2d(400, eps=1e-05, momentum=0.1, affine=False)
      )
    )
    (13): ResnetBlock (
      (conv_block): Sequential (
        (0): ReflectionPad2d (1, 1, 1, 1)
        (1): Conv2d(400, 400, kernel_size=(3, 3), stride=(1, 1))
        (2): InstanceNorm2d(400, eps=1e-05, momentum=0.1, affine=False)
        (3): ReLU (inplace)
        (4): ReflectionPad2d (1, 1, 1, 1)
        (5): Conv2d(400, 400, kernel_size=(3, 3), stride=(1, 1))
        (6): InstanceNorm2d(400, eps=1e-05, momentum=0.1, affine=False)
      )
    )
    (14): ResnetBlock (
      (conv_block): Sequential (
        (0): ReflectionPad2d (1, 1, 1, 1)
        (1): Conv2d(400, 400, kernel_size=(3, 3), stride=(1, 1))
        (2): InstanceNorm2d(400, eps=1e-05, momentum=0.1, affine=False)
        (3): ReLU (inplace)
        (4): ReflectionPad2d (1, 1, 1, 1)
        (5): Conv2d(400, 400, kernel_size=(3, 3), stride=(1, 1))
        (6): InstanceNorm2d(400, eps=1e-05, momentum=0.1, affine=False)
      )
    )
    (15): ResnetBlock (
      (conv_block): Sequential (
        (0): ReflectionPad2d (1, 1, 1, 1)
        (1): Conv2d(400, 400, kernel_size=(3, 3), stride=(1, 1))
        (2): InstanceNorm2d(400, eps=1e-05, momentum=0.1, affine=False)
        (3): ReLU (inplace)
        (4): ReflectionPad2d (1, 1, 1, 1)
        (5): Conv2d(400, 400, kernel_size=(3, 3), stride=(1, 1))
        (6): InstanceNorm2d(400, eps=1e-05, momentum=0.1, affine=False)
      )
    )
    (16): ResnetBlock (
      (conv_block): Sequential (
        (0): ReflectionPad2d (1, 1, 1, 1)
        (1): Conv2d(400, 400, kernel_size=(3, 3), stride=(1, 1))
        (2): InstanceNorm2d(400, eps=1e-05, momentum=0.1, affine=False)
        (3): ReLU (inplace)
        (4): ReflectionPad2d (1, 1, 1, 1)
        (5): Conv2d(400, 400, kernel_size=(3, 3), stride=(1, 1))
        (6): InstanceNorm2d(400, eps=1e-05, momentum=0.1, affine=False)
      )
    )
    (17): ResnetBlock (
      (conv_block): Sequential (
        (0): ReflectionPad2d (1, 1, 1, 1)
        (1): Conv2d(400, 400, kernel_size=(3, 3), stride=(1, 1))
        (2): InstanceNorm2d(400, eps=1e-05, momentum=0.1, affine=False)
        (3): ReLU (inplace)
        (4): ReflectionPad2d (1, 1, 1, 1)
        (5): Conv2d(400, 400, kernel_size=(3, 3), stride=(1, 1))
        (6): InstanceNorm2d(400, eps=1e-05, momentum=0.1, affine=False)
      )
    )
    (18): ResnetBlock (
      (conv_block): Sequential (
        (0): ReflectionPad2d (1, 1, 1, 1)
        (1): Conv2d(400, 400, kernel_size=(3, 3), stride=(1, 1))
        (2): InstanceNorm2d(400, eps=1e-05, momentum=0.1, affine=False)
        (3): ReLU (inplace)
        (4): ReflectionPad2d (1, 1, 1, 1)
        (5): Conv2d(400, 400, kernel_size=(3, 3), stride=(1, 1))
        (6): InstanceNorm2d(400, eps=1e-05, momentum=0.1, affine=False)
      )
    )
    (19): ConvTranspose2d(400, 200, kernel_size=(3, 3), stride=(2, 2), padding=(1, 1), output_padding=(1, 1))
    (20): InstanceNorm2d(200, eps=1e-05, momentum=0.1, affine=False)
    (21): ReLU (inplace)
    (22): ConvTranspose2d(200, 100, kernel_size=(3, 3), stride=(2, 2), padding=(1, 1), output_padding=(1, 1))
    (23): InstanceNorm2d(100, eps=1e-05, momentum=0.1, affine=False)
    (24): ReLU (inplace)
    (25): ReflectionPad2d (3, 3, 3, 3)
    (26): Conv2d(100, 1, kernel_size=(7, 7), stride=(1, 1))
    (27): Tanh ()
  )
)
Total number of parameters: 27738001
ResnetGenerator (
  (model): Sequential (
    (0): ReflectionPad2d (3, 3, 3, 3)
    (1): Conv2d(1, 100, kernel_size=(7, 7), stride=(1, 1))
    (2): InstanceNorm2d(100, eps=1e-05, momentum=0.1, affine=False)
    (3): ReLU (inplace)
    (4): Conv2d(100, 200, kernel_size=(3, 3), stride=(2, 2), padding=(1, 1))
    (5): InstanceNorm2d(200, eps=1e-05, momentum=0.1, affine=False)
    (6): ReLU (inplace)
    (7): Conv2d(200, 400, kernel_size=(3, 3), stride=(2, 2), padding=(1, 1))
    (8): InstanceNorm2d(400, eps=1e-05, momentum=0.1, affine=False)
    (9): ReLU (inplace)
    (10): ResnetBlock (
      (conv_block): Sequential (
        (0): ReflectionPad2d (1, 1, 1, 1)
        (1): Conv2d(400, 400, kernel_size=(3, 3), stride=(1, 1))
        (2): InstanceNorm2d(400, eps=1e-05, momentum=0.1, affine=False)
        (3): ReLU (inplace)
        (4): ReflectionPad2d (1, 1, 1, 1)
        (5): Conv2d(400, 400, kernel_size=(3, 3), stride=(1, 1))
        (6): InstanceNorm2d(400, eps=1e-05, momentum=0.1, affine=False)
      )
    )
    (11): ResnetBlock (
      (conv_block): Sequential (
        (0): ReflectionPad2d (1, 1, 1, 1)
        (1): Conv2d(400, 400, kernel_size=(3, 3), stride=(1, 1))
        (2): InstanceNorm2d(400, eps=1e-05, momentum=0.1, affine=False)
        (3): ReLU (inplace)
        (4): ReflectionPad2d (1, 1, 1, 1)
        (5): Conv2d(400, 400, kernel_size=(3, 3), stride=(1, 1))
        (6): InstanceNorm2d(400, eps=1e-05, momentum=0.1, affine=False)
      )
    )
    (12): ResnetBlock (
      (conv_block): Sequential (
        (0): ReflectionPad2d (1, 1, 1, 1)
        (1): Conv2d(400, 400, kernel_size=(3, 3), stride=(1, 1))
        (2): InstanceNorm2d(400, eps=1e-05, momentum=0.1, affine=False)
        (3): ReLU (inplace)
        (4): ReflectionPad2d (1, 1, 1, 1)
        (5): Conv2d(400, 400, kernel_size=(3, 3), stride=(1, 1))
        (6): InstanceNorm2d(400, eps=1e-05, momentum=0.1, affine=False)
      )
    )
    (13): ResnetBlock (
      (conv_block): Sequential (
        (0): ReflectionPad2d (1, 1, 1, 1)
        (1): Conv2d(400, 400, kernel_size=(3, 3), stride=(1, 1))
        (2): InstanceNorm2d(400, eps=1e-05, momentum=0.1, affine=False)
        (3): ReLU (inplace)
        (4): ReflectionPad2d (1, 1, 1, 1)
        (5): Conv2d(400, 400, kernel_size=(3, 3), stride=(1, 1))
        (6): InstanceNorm2d(400, eps=1e-05, momentum=0.1, affine=False)
      )
    )
    (14): ResnetBlock (
      (conv_block): Sequential (
        (0): ReflectionPad2d (1, 1, 1, 1)
        (1): Conv2d(400, 400, kernel_size=(3, 3), stride=(1, 1))
        (2): InstanceNorm2d(400, eps=1e-05, momentum=0.1, affine=False)
        (3): ReLU (inplace)
        (4): ReflectionPad2d (1, 1, 1, 1)
        (5): Conv2d(400, 400, kernel_size=(3, 3), stride=(1, 1))
        (6): InstanceNorm2d(400, eps=1e-05, momentum=0.1, affine=False)
      )
    )
    (15): ResnetBlock (
      (conv_block): Sequential (
        (0): ReflectionPad2d (1, 1, 1, 1)
        (1): Conv2d(400, 400, kernel_size=(3, 3), stride=(1, 1))
        (2): InstanceNorm2d(400, eps=1e-05, momentum=0.1, affine=False)
        (3): ReLU (inplace)
        (4): ReflectionPad2d (1, 1, 1, 1)
        (5): Conv2d(400, 400, kernel_size=(3, 3), stride=(1, 1))
        (6): InstanceNorm2d(400, eps=1e-05, momentum=0.1, affine=False)
      )
    )
    (16): ResnetBlock (
      (conv_block): Sequential (
        (0): ReflectionPad2d (1, 1, 1, 1)
        (1): Conv2d(400, 400, kernel_size=(3, 3), stride=(1, 1))
        (2): InstanceNorm2d(400, eps=1e-05, momentum=0.1, affine=False)
        (3): ReLU (inplace)
        (4): ReflectionPad2d (1, 1, 1, 1)
        (5): Conv2d(400, 400, kernel_size=(3, 3), stride=(1, 1))
        (6): InstanceNorm2d(400, eps=1e-05, momentum=0.1, affine=False)
      )
    )
    (17): ResnetBlock (
      (conv_block): Sequential (
        (0): ReflectionPad2d (1, 1, 1, 1)
        (1): Conv2d(400, 400, kernel_size=(3, 3), stride=(1, 1))
        (2): InstanceNorm2d(400, eps=1e-05, momentum=0.1, affine=False)
        (3): ReLU (inplace)
        (4): ReflectionPad2d (1, 1, 1, 1)
        (5): Conv2d(400, 400, kernel_size=(3, 3), stride=(1, 1))
        (6): InstanceNorm2d(400, eps=1e-05, momentum=0.1, affine=False)
      )
    )
    (18): ResnetBlock (
      (conv_block): Sequential (
        (0): ReflectionPad2d (1, 1, 1, 1)
        (1): Conv2d(400, 400, kernel_size=(3, 3), stride=(1, 1))
        (2): InstanceNorm2d(400, eps=1e-05, momentum=0.1, affine=False)
        (3): ReLU (inplace)
        (4): ReflectionPad2d (1, 1, 1, 1)
        (5): Conv2d(400, 400, kernel_size=(3, 3), stride=(1, 1))
        (6): InstanceNorm2d(400, eps=1e-05, momentum=0.1, affine=False)
      )
    )
    (19): ConvTranspose2d(400, 200, kernel_size=(3, 3), stride=(2, 2), padding=(1, 1), output_padding=(1, 1))
    (20): InstanceNorm2d(200, eps=1e-05, momentum=0.1, affine=False)
    (21): ReLU (inplace)
    (22): ConvTranspose2d(200, 100, kernel_size=(3, 3), stride=(2, 2), padding=(1, 1), output_padding=(1, 1))
    (23): InstanceNorm2d(100, eps=1e-05, momentum=0.1, affine=False)
    (24): ReLU (inplace)
    (25): ReflectionPad2d (3, 3, 3, 3)
    (26): Conv2d(100, 1, kernel_size=(7, 7), stride=(1, 1))
    (27): Tanh ()
  )
)
Total number of parameters: 27738001
initialization method [xavier]
initialization method [xavier]
While copying the parameter named model.1.weight, whose dimensions in the model are torch.Size([100, 1, 7, 7]) and whose dimensions in the checkpoint are torch.Size([1, 3, 7, 7]), ...
Traceback (most recent call last):
  File ""test.py"", line 28, in <module>
…
