…
Can not confirm it yet, but just in case for others, in case I forget to come back.
",might due old version pip install pip install confirm yet case case forget come back,issue,negative,negative,neutral,neutral,negative,negative
980461082,"Here is the model summary

```
Model: ""model""
_________________________________________________________________
Layer (type)                 Output Shape              Param #
=================================================================
input_1 (InputLayer)         [(None, 2651)]            0
_________________________________________________________________
multi_category_encoding (Mul (None, 2651)              0
_________________________________________________________________
normalization (Normalization (None, 2651)              5303
_________________________________________________________________
dense (Dense)                (None, 32)                84864
_________________________________________________________________
re_lu (ReLU)                 (None, 32)                0
_________________________________________________________________
dense_1 (Dense)              (None, 32)                1056
_________________________________________________________________
re_lu_1 (ReLU)               (None, 32)                0
_________________________________________________________________
dense_2 (Dense)              (None, 1)                 33
_________________________________________________________________
classification_head_1 (Activ (None, 1)                 0
=================================================================
Total params: 91,256
Trainable params: 85,953
Non-trainable params: 5,303
_________________________________________________________________
```",model summary model model layer type output shape param none none normalization normalization none dense dense none none dense none none dense none none total trainable,issue,negative,neutral,neutral,neutral,neutral,neutral
…
model = clf.export_model()

# 2. Ask for the model Sumary:
model.summary()
```

if you add this at the end of the AutoKeras code, you'll be able to see the architecture of the model in the Terminal.

I got the following message for a random trial I did:
 ```
_________________________________________________________________
Layer (type)                 Output Shape              Param #   
=================================================================
input_1 (InputLayer)         [(None, 84)]              0         
_________________________________________________________________
multi_category_encoding (Mul (None, 84)                0         
_________________________________________________________________
normalization (Normalization (None, 84)                169       
_________________________________________________________________
dense (Dense)                (None, 512)               43520     
_________________________________________________________________
batch_normalization (BatchNo (None, 512)               2048      
_________________________________________________________________
re_lu (ReLU)                 (None, 512)               0         
_________________________________________________________________
dense_1 (Dense)              (None, 32)                16416     
_________________________________________________________________
batch_normalization_1 (Batch (None, 32)                128       
_________________________________________________________________
re_lu_1 (ReLU)               (None, 32)                0         
_________________________________________________________________
dense_2 (Dense)              (None, 101)               3333      
_________________________________________________________________
classification_head_1 (Softm (None, 101)               0         
=================================================================
Total params: 65,614
Trainable params: 64,357
Non-trainable params: 1,257
_________________________________________________________________
```

This doesn't solve the problem about loading the best model but at least it gives you the opportunity to recreate the best model 
 architecture on tensorflow by yourself, which gi
…
When I put np.unicode this works to me. But I believe that is important to use the original type of numpy, or perhaps, you can put this transformation within the preprocess. This is only an idea/suggestion.
Again, thank you for your help!
Bellow, I put the de model.summary()

----------------------
model.summary()
Model: ""model""
_________________________________________________________________
Layer (type)                 Output Shape              Param #   
=================================================================
input_1 (InputLayer)         [(None, 9)]               0         
_________________________________________________________________
multi_column_categorical_enc (None, 9)                 0         
_________________________________________________________________
dense (Dense)                (None, 64)                640       
_________________________________________________________________
batch_normalization (BatchNo (None, 64)                256       
_________________________________________________________________
re_lu (ReLU)                 (None, 64)                0         
_________________________________________________________________
dropout (Dropout)            (None, 64)                0         
_________________________________________________________________
dense_1 (Dense)              (None, 16)                1040      
_________________________________________________________________
batch_normalization_1 (Batch (None, 16)                64        
_________________________________________________________________
re_lu_1 (ReLU)               (None, 16)                0         
_________________________________________________________________
dropout_1 (Dropout)          (None, 16)                0         
_________________________________________________________________
dense_2 (Dense)              (None, 32)                544       
_________________________________________________________________
batch_normalization_2 (Batch (None, 32)                128       
_________________________________________________________________
re_lu_2 (ReLU)               (None, 32)                0         
_________________________________________________________________
dropout_2 (Dropout)          (None, 32)                0         
_________________________________________________________________
regression_head_1 (Dense)    (None, 1)                 33        
=================================================================
Total params: 2,705
Trainable params: 2,481
Non-trainable params: 224
_________________________________________________________________",thank response put work believe important use original type perhaps put transformation within thank help bellow put de model model layer type output shape param none none dense dense none none none dropout dropout none dense none batch none none dropout none dense none batch none none dropout none dense none total trainable,issue,positive,positive,positive,positive,positive,positive
…
It looks like this (on the exact same code and repeatable training set as the original log file attached):

Model: ""model""
__________________________________________________________________________________________________
Layer (type)                    Output Shape         Param #     Connected to                     
==================================================================================================
input_1 (InputLayer)            [(None, 18, 10, 1)]  0                                            
__________________________________________________________________________________________________
normalization (Normalization)   (None, 18, 10, 1)    3           input_1[0][0]                    
__________________________________________________________________________________________________
conv2d (Conv2D)                 (None, 9, 5, 128)    1280        normalization[0][0]              
__________________________________________________________________________________________________
separable_conv2d (SeparableConv (None, 9, 5, 128)    17664       conv2d[0][0]                     
__________________________________________________________________________________________________
separable_conv2d_1 (SeparableCo (None, 9, 5, 128)    17664       separable_conv2d[0][0]           
__________________________________________________________________________________________________
add (Add)                       (None, 9, 5, 128)    0           separable_conv2d_1[0][0]         
                                                                 conv2d[0][0]                     
__________________________________________________________________________________________________
separable_conv2d_2 (SeparableCo (None, 9, 5, 128)    17664       add[0][0]                        
__________________________________________________________________________________________________
separable_conv2d_3 (SeparableCo (None, 9, 5, 128)    17664       separable_conv2d_2[0][0]         
__________________________________________________________________________________________________
add_1 (Add)                     (None, 9, 5, 128)    0           separable_conv2d_3[0][0]         
                                                                 add[0][0]                        
__________________________________________________________________________________________________
separable_conv2d_4 (SeparableCo (None, 9, 5, 128)    17664       add_1[0][0]                      
__________________________________________________________________________________________________
separable_conv2d_5 (SeparableCo (None, 9, 5, 128)    17664       separable_conv2d_4[0][0]         
__________________________________________________________________________________________________
add_2 (Add)                     (None, 9, 5, 128)    0           separable_conv2d_5[0][0]         
                                                                 add_1[0][0]                      
__________________________________________________________________________________________________
separable_conv2d_6 (SeparableCo (None, 9, 5, 128)    17664       add_2[0][0]                      
__________________________________________________________________________________________________
separable_conv2d_7 (SeparableCo (None, 9, 5, 128)    17664       separable_conv2d_6[0][0]         
__________________________________________________________________________________________________
add_3 (Add)                     (None, 9, 5, 128)    0           separable_conv2d_7[0][0]         
                                                                 add_2[0][0]                      
__________________________________________________________________________________________________
separable_conv2d_8 (SeparableCo (None, 9, 5, 128)    17664       add_3[0][0]                      
__________________________________________________________________________________________________
separable_conv2d_9 (SeparableCo (None, 9, 5, 128)    17664       separable_conv2d_8[0][0]         
__________________________________________________________________________________________________
add_4 (Add)                     (None, 9, 5, 128)    0           separable_conv2d_9[0][0]         
                                                                 add_3[0][0]                      
__________________________________________________________________________________________________
separable_conv2d_10 (SeparableC (None, 9, 5, 256)    34176       add_4[0][0]                      
__________________________________________________________________________________________________
separable_conv2d_11 (SeparableC (None, 9, 5, 256)    68096       separable_conv2d_10[0][0]        
__________________________________________________________________________________________________
max_pooling2d (MaxPooling2D)    (None, 5, 3, 256)    0           separable_conv2d_11[0][0]        
__________________________________________________________________________________________________
conv2d_1 (Conv2D)               (None, 5, 3, 256)    33024       add_4[0][0]                      
__________________________________________________________________________________________________
add_5 (Add)                     (None, 5, 3, 256)    0           max_pooling2d[0][0]              
                                                                 conv2d_1[0][0]                   
__________________________________________________________________________________________________
flatten (Flatten)               (None, 3840)         0           add_5[0][0]                      
__________________________________________________________________________________________________
regression_head_1 (Dense)       (None, 1)            3841        flatten[0][0]                    
==================================================================================================
Total params: 317,060
Trainable params: 317,057
Non-trainable params: 3
__________________________________________________________________________________________________
Train on 3283 samples, validate on 1408 samples
Epoch 1/1000

  32/3283 [..............................] - ETA: 55s - loss: nan - mean_squared_error: nan
…
