…
1302745823,It seems due to changes introduced in pytorch nightly build(1.14.0.dev20221103+cpu). Investigating...,due nightly build investigating,issue,negative,negative,negative,negative,negative,negative
1277721807,"@hudeven Of course.

After cloning this repo and downloading the lsun data, I'm running this command:
`python main.py --dataset lsun --dataroot lsun --cuda --ngpu 2
`

That is resulting in this error:

```
Namespace(dataset='lsun', dataroot='lsun', workers=2, batchSize=64, imageSize=64, nz=100, ngf=64, ndf=64, niter=25, lr=0.0002, beta1=0.5, cuda=True, dry_run=False, ngpu=2, netG='', netD='', outf='.', manualSeed=None, classes='bedroom')
Random Seed:  177
Generator(
  (main): Sequential(
    (0): ConvTranspose2d(100, 512, kernel_size=(4, 4), stride=(1, 1), bias=False)
    (1): BatchNorm2d(512, eps=1e-05, momentum=0.1, affine=True, track_running_stats=True)
    (2): ReLU(inplace=True)
    (3): ConvTranspose2d(512, 256, kernel_size=(4, 4), stride=(2, 2), padding=(1, 1), bias=False)
    (4): BatchNorm2d(256, eps=1e-05, momentum=0.1, affine=True, track_running_stats=True)
    (5): ReLU(inplace=True)
    (6): ConvTranspose2d(256, 128, kernel_size=(4, 4), stride=(2, 2), padding=(1, 1), bias=False)
    (7): BatchNorm2d(128, eps=1e-05, momentum=0.1, affine=True, track_running_stats=True)
    (8): ReLU(inplace=True)
    (9): ConvTranspose2d(128, 64, kernel_size=(4, 4), stride=(2, 2), padding=(1, 1), bias=False)
    (10): BatchNorm2d(64, eps=1e-05, momentum=0.1, affine=True, track_running_stats=True)
    (11): ReLU(inplace=True)
    (12): ConvTranspose2d(64, 3, kernel_size=(4, 4), stride=(2, 2), padding=(1, 1), bias=False)
    (13): Tanh()
  )
)
Discriminator(
  (main): Sequential(
    (0): Conv2d(3, 64, kernel_size=(4, 4), stride=(2, 2), padding=(1, 1), bias=False)
    (1): LeakyReLU(negative_slope=0.2, inplace=True)
    (2): Conv2d(64, 128, kernel_size=(4, 4), stride=(2, 2), padding=(1, 1), bias=False)
    (3): BatchNorm2d(128, eps=1e-05, momentum=0.1, affine=True, track_running_stats=True)
    (4): LeakyReLU(negative_slope=0.2, inplace=True)
    (5): Conv2d(128, 256, kernel_size=(4, 4), stride=(2, 2), padding=(1, 1), bias=False)
    (6): BatchNorm2d(256, eps=1e-05, momentum=0.1, affine=True, track_running_stats=True)
    (7): LeakyReLU(negative_slope=0.2, inplace=True)
    (8): Conv2d(256, 512, kernel_size=(4, 4), stride=(2, 2), padding=(1, 1), bias=False)
    (9): BatchNorm2d(512, eps=1e-05, momentum=0.1, affine=True, track_running_stats=True)
    (10): LeakyReLU(negative_slope=0.2, inplace=True)
    (11): Conv2d(512, 1, kernel_size=(4, 4), stride=(1, 1), bias=False)
    (12): Sigmoid()
  )
)
Traceback (most recent call last):
  File ""C:\Users\Windows\Documents\examples\dcgan\main.py"", line 219, in <module>
    for i, data in enumerate(dataloader, 0):
  File ""C:\Users\Windows\anaconda3\lib\site-packages\torch\utils\data\dataloader.py"", line 444, in __iter__
    return self._get_iterator()
  File ""C:\Users\Windows\anaconda3\lib\site-packages\torch\utils\data\dataloader.py"", line 390, in _get_iterator
…
