…
   train acc: 0.935697
   val loss: 0.257953
   val acc: 0.944311
",tested two took much time epoch took train loss train loss epoch took train loss train loss,issue,negative,positive,positive,positive,positive,positive
383310217,@DEKHTIARJonathan I think we can use TF name to check whether the layer is unique ? ~ Let me think~.,think use name check whether layer unique let,issue,negative,positive,positive,positive,positive,positive
383305653,"Alternatively, we can compute the **BFLOPs** of each layer, and the whole network, like darknet:
```
layer     filters    size              input                output
    0 conv     32  3 x 3 / 1   416 x 416 x   3   ->   416 x 416 x  32  0.299 BFLOPs
    1 max          2 x 2 / 2   416 x 416 x  32   ->   208 x 208 x  32
    2 conv     64  3 x 3 / 1   208 x 208 x  32   ->   208 x 208 x  64  1.595 BFLOPs
    3 max          2 x 2 / 2   208 x 208 x  64   ->   104 x 104 x  64
    4 conv    128  3 x 3 / 1   104 x 104 x  64   ->   104 x 104 x 128  1.595 BFLOPs
    5 conv     64  1 x 1 / 1   104 x 104 x 128   ->   104 x 104 x  64  0.177 BFLOPs
    6 conv    128  3 x 3 / 1   104 x 104 x  64   ->   104 x 104 x 128  1.595 BFLOPs
    7 max          2 x 2 / 2   104 x 104 x 128   ->    52 x  52 x 128
    8 conv    256  3 x 3 / 1    52 x  52 x 128   ->    52 x  52 x 256  1.595 BFLOPs
    9 conv    128  1 x 1 / 1    52 x  52 x 256   ->    52 x  52 x 128  0.177 BFLOPs
...
```",alternatively compute layer whole network like layer size input output,issue,negative,positive,positive,positive,positive,positive
383304220,"You have two ways.

First, you create a list of layers and you loop through it.

However, names in TensorFlow shall be unique, so I would say that dictionary is a much more efficient approach.

…
