…
[0714 16:17:24 @training.py:48] [DataParallel] Training a model of 4 towers.
[0714 16:17:24 @interface.py:41] Automatically applying StagingInput on the DataFlow.
[0714 16:17:24 @input_source.py:221] Setting up the queue 'QueueInput/input_queue' for CPU prefetching ...
WARNING:tensorflow:From /home01/hpc15a01/.local/lib/python3.7/site-packages/tensorpack/graph_builder/training.py:385: The name tf.train.replica_device_setter is deprecated. Please use tf.compat.v1.train.replica_device_setter instead.

[0714 16:17:24 @training.py:110] Building graph for training tower 0 ...
[0714 16:17:24 @registry.py:90] 'conv0': [?, 3, 224, 224] --> [?, 64, 112, 112]
[0714 16:17:24 @registry.py:90] 'pool0': [?, 64, 112, 112] --> [?, 64, 56, 56]
WARNING:tensorflow:From /scratch/hpc15a01/src/tensorpack/examples/ResNetSrc/resnet_model.py:117: The name tf.variable_scope is deprecated. Please use tf.compat.v1.variable_scope instead.

[0714 16:17:24 @registry.py:90] 'group0/block0/conv1': [?, 64, 56, 56] --> [?, 64, 56, 56]
[0714 16:17:24 @registry.py:90] 'group0/block0/conv2': [?, 64, 56, 56] --> [?, 64, 56, 56]
[0714 16:17:24 @registry.py:90] 'group0/block0/conv3': [?, 64, 56, 56] --> [?, 256, 56, 56]
[0714 16:17:24 @registry.py:90] 'group0/block0/convshortcut': [?, 64, 56, 56] --> [?, 256, 56, 56]
[0714 16:17:24 @registry.py:90] 'group0/block1/conv1': [?, 256, 56, 56] --> [?, 64, 56, 56]
[0714 16:17:24 @registry.py:90] 'group0/block1/conv2': [?, 64, 56, 56] --> [?, 64, 56, 56]
[0714 16:17:24 @registry.py:90] 'group0/block1/conv3': [?, 64, 56, 56] --> [?, 256, 56, 56]
[0714 16:17:24 @registry.py:90] 'group0/block2/conv1': [?, 256, 56, 56] --> [?, 64, 56, 56]
[0714 16:17:24 @registry.py:90] 'group0/block2/conv2': [?, 64, 56, 56] --> [?, 64, 56, 56]
[0714 16:17:24 @registry.py:90] 'group0/block2/conv3': [?, 64, 56, 56] --> [?, 256, 56, 56]
[0714 16:17:24 @registry.py:90] 'group1/block0/conv1': [?, 256, 56, 56] --> [?, 128, 56, 56]
[0714 16:17:24 @registry.py:90] 'group1/block0/conv2': [?, 128, 56, 56] --> [?, 128, 28, 28]
[0714 16:17:24 @registry.py:90] 'group1/block0/conv3': [?, 128, 28, 28] --> [?, 512, 28, 28]
[0714 16:17:24 @registry.py:90] 'group1/block0/convshortcut': [?, 256, 56, 56] --> [?, 512, 28, 28]
[0714 16:17:24 @registry.py:90] 'group1/block1/conv1': [?, 512, 28, 28] --> [?, 128, 28, 28]
[0714 16:17:24 @registry.py:90] 'group1/block1/conv2': [?, 128, 28, 28] --> [?, 128, 28, 28]
[0714 16:17:24 @registry.py:90] 'group1/block1/conv3': [?, 128, 28, 28] --> [?, 512, 28, 28]
[0714 16:17:24 @registry.py:90] 'group1/block2/conv1': [?, 512, 28, 28] --> [?, 128, 28, 28]
[0714 16:17:24 @registry.py:90] 'group1/block2/conv2': [?, 128, 28, 28] --> [?, 128, 28, 28]
[0714 16:17:24 @registry.py:90] 'group1/block2/conv3': [?, 128, 28, 28] --> [?, 512, 28, 28]
[0714 16:17:24 @registry.py:90] 'group1/block3/conv1': [?, 512, 28, 28] --> [?, 128, 28, 28]
[0714 16:17:24 @registry.py:90] 'group1/block3/conv2': [?, 128, 28, 28] --> [?, 128, 28, 28]
[0714 16:17:24 @registry.py:90] 'group1/block3/conv3': [?, 128, 28, 28] --> [?, 512, 28, 28]
[0714 16:17:24 @registry.py:90] 'group2/block0/conv1': [?, 512, 28, 28] --> [?, 256, 28, 28]
[0714 16:17:24 @registry.py:90] 'group2/block0/conv2': [?, 256, 28, 28] --> [?, 256, 14, 14]
[0714 16:17:24 @registry.py:90] 'group2/block0/conv3': [?, 256, 14, 14] --> [?, 1024, 14, 14]
[0714 16:17:24 @registry.py:90] 'group2/block0/convshortcut': [?, 512, 28, 28] --> [?, 1024, 14, 14]
[0714 16:17:24 @registry.py:90] 'group2/block1/conv1': [?, 1024, 14, 14] --> [?, 256, 14, 14]
[0714 16:17:24 @registry.py:90] 'group2/block1/conv2': [?, 256, 14, 14] --> [?, 256, 14, 14]
[0714 16:17:24 @registry.py:90] 'group2/block1/conv3': [?, 256, 14, 14] --> [?, 1024, 14, 14]
[0714 16:17:24 @registry.py:90] 'group2/block2/conv1': [?, 1024, 14, 14] --> [?, 256, 14, 14]
[0714 16:17:24 @registry.py:90] 'group2/block2/conv2': [?, 256, 14, 14] --> [?, 256, 14, 14]
[0714 16:17:24 @registry.py:90] 'group2/block2/conv3': [?, 256, 14, 14] --> [?, 1024, 14, 14]
[0714 16:17:24 @registry.py:90] 'group2/block3/conv1': [?, 1024, 14, 14] --> [?, 256, 14, 14]
[0714 16:17:24 @registry.py:90] 'group2/block3/conv2': [?, 256, 14, 14] --> [?, 256, 14, 14]
[0714 16:17:24 @registry.py:90] 'group2/block3/conv3': [?, 256, 14, 14] --> [?, 1024, 14, 14]
[0714 16:17:24 @registry.py:90] 'group2/block4/conv1': [?, 1024, 14, 14] --> [?, 256, 14, 14]
[0714 16:17:24 @registry.py:90] 'group2/block4/conv2': [?, 256, 14, 14] --> [?, 256, 14, 14]
[0714 16:17:24 @registry.py:90] 'group2/block4/conv3': [?, 256, 14, 14] --> [?, 1024, 14, 14]
[0714 16:17:24 @registry.py:90] 'group2/block5/conv1': [?, 1024, 14, 14] --> [?, 256, 14, 14]
[0714 16:17:24 @registry.py:90] 'group2/block5/conv2': [?, 256, 14, 14] --> [?, 256, 14, 14]
[0714 16:17:25 @registry.py:90] 'group2/block5/conv3': [?, 256, 14, 14] --> [?, 1024, 14, 14]
[0714 16:17:25 @registry.py:90] 'group3/block0/conv1': [?, 1024, 14, 14] --> [?, 512, 14, 14]
[0714 16:17:25 @registry.py:90] 'group3/block0/conv2': [?, 512, 14, 14] --> [?, 512, 7, 7]
[0714 16:17:25 @registry.py:90] 'group3/block0/conv3': [?, 512, 7, 7] --> [?, 2048, 7, 7]
[0714 16:17:25 @registry.py:90] 'group3/block0/convshortcut': [?, 1024, 14, 14] --> [?, 2048, 7, 7]
[0714 16:17:25 @registry.py:90] 'group3/block1/conv1': [?, 2048, 7, 7] --> [?, 512, 7, 7]
[0714 16:17:25 @registry.py:90] 'group3/block1/conv2': [?, 512, 7, 7] --> [?, 512, 7, 7]
[0714 16:17:25 @registry.py:90] 'group3/block1/conv3': [?, 512, 7, 7] --> [?, 2048, 7, 7]
[0714 16:17:25 @registry.py:90] 'group3/block2/conv1': [?, 2048, 7, 7] --> [?, 512, 7, 7]
[0714 16:17:25 @registry.py:90] 'group3/block2/conv2': [?, 512, 7, 7] --> [?, 512, 7, 7]
[0714 16:17:25 @registry.py:90] 'group3/block2/conv3': [?, 512, 7, 7] --> [?, 2048, 7, 7]
[0714 16:17:25 @registry.py:90] 'gap': [?, 2048, 7, 7] --> [?, 2048]
[0714 16:17:25 @registry.py:90] 'linear': [?, 2048] --> [?, 1000]
[0714 16:17:25 @regularize.py:97] regularize_cost() found 54 variables to regularize.
[0714 16:17:25 @regularize.py:21] The following tensors will be regularized: conv0/W:0, group0/block0/conv1/W:0, group0/block0/conv2/W:0, group0/block0/conv3/W:0, group0/block0/convshortcut/W:0, group0/block1/conv1/W:0, group0/block1/conv2/W:0, group0/block1/conv3/W:0, group0/block2/conv1/W:0, group0/
…
[0714 16:17:26 @regularize.py:97] regularize_cost() found 54 variables to regularize.
[0714 16:17:27 @training.py:110] Building graph for training tower 2 ...
[0714 16:17:28 @regularize.py:97] regularize_cost() found 54 variables to regularize.
[0714 16:17:28 @training.py:110] Building graph for training tower 3 ...
[0714 16:17:29 @regularize.py:97] regularize_cost() found 54 variables to regularize.
[0714 16:17:31 @model_utils.py:67] List of Trainable Variables:
name                                 shape                 #elements
-----------------------------------  ------------------  -----------
conv0/W                              [7, 7, 3, 64]              9408
conv0/bn/gamma                       [64]                         64
conv0/bn/beta                        [64]                         64
group0/block0/conv1/W                [1, 1, 64, 64]             4096
group0/block0/conv1/bn/gamma         [64]                         64
group0/block0/conv1/bn/beta          [64]                         64
group0/block0/conv2/W                [3, 3, 64, 64]            36864
group0/block0/conv2/bn/gamma         [64]                         64
group0/block0/conv2/bn/beta          [64]                         64
group0/block0/conv3/W                [1, 1, 64, 256]           16384
group0/block0/conv3/bn/gamma         [256]                       256
group0/block0/conv3/bn/beta          [256]                       256
group0/block0/convshortcut/W         [1, 1, 64, 256]           16384
group0/block0/convshortcut/bn/gamma  [256]                       256
group0/block0/convshortcut/bn/beta   [256]                       256
group0/block1/conv1/W                [1, 1, 256, 64]           16384
group0/block1/conv1/bn/gamma         [64]                         64
group0/block1/conv1/bn/beta          [64]                         64
group0/block1/conv2/W                [3, 3, 64, 64]            36864
group0/block1/conv2/bn/gamma         [64]                         64
group0/block1/conv2/bn/beta          [64]                         64
group0/block1/conv3/W                [1, 1, 64, 256]           16384
group0/block1/conv3/bn/gamma         [256]                       256
group0/block1/conv3/bn/beta          [256]                       256
group0/block2/conv1/W                [1, 1, 256, 64]           16384
group0/block2/conv1/bn/gamma         [64]                         64
group0/block2/conv1/bn/beta          [64]                         64
group0/block2/conv2/W                [3, 3, 64, 64]            36864
group0/block2/conv2/bn/gamma         [64]                         64
group0/block2/conv2/bn/beta          [64]                         64
group0/block2/conv3/W                [1, 1, 64, 256]           16384
group0/block2/conv3/bn/gamma         [256]                       256
group0/block2/conv3/bn/beta          [256]                       256
group1/block0/conv1/W                [1, 1, 256, 128]          32768
group1/block0/conv1/bn/gamma         [128]                       128
group1/block0/conv1/bn/beta          [128]                       128
group1/block0/conv2/W                [3, 3, 128, 128]         147456
group1/block0/conv2/bn/gamma         [128]                       128
group1/block0/conv2/bn/beta          [128]                       128
group1/block0/conv3/W                [1, 1, 128, 512]          65536
group1/block0/conv3/bn/gamma         [512]                       512
group1/block0/conv3/bn/beta          [512]                       512
group1/block0/convshortcut/W         [1, 1, 256, 512]         131072
group1/block0/convshortcut/bn/gamma  [512]                       512
group1/block0/convshortcut/bn/beta   [512]                       512
group1/block1/conv1/W                [1, 1, 512, 128]          65536
group1/block1/conv1/bn/gamma         [128]                       128
group1/block1/conv1/bn/beta          [128]                       128
group1/block1/conv2/W                [3, 3, 128, 128]         147456
group1/block1/conv2/bn/gamma         [128]                       128
group1/block1/conv2/bn/beta          [128]                       128
group1/block1/conv3/W                [1, 1, 128, 512]          65536
group1/block1/conv3/bn/gamma         [512]                       512
group1/block1/conv3/bn/beta          [512]                       512
group1/block2/conv1/W                [1, 1, 512, 128]          65536
group1/block2/conv1/bn/gamma         [128]                       128
group1/block2/conv1/bn/beta          [128]                       128
group1/block2/conv2/W                [3, 3, 128, 128]         147456
group1/block2/conv2/bn/gamma         [128]                       128
group1/block2/conv2/bn/beta          [128]                       128
group1/block2/conv3/W                [1, 1, 128, 512]          65536
group1/block2/conv3/bn/gamma         [512]                       512
group1/block2/conv3/bn/beta          [512]                       512
group1/block3/conv1/W                [1, 1, 512, 128]          65536
group1/block3/conv1/bn/gamma         [128]                       128
group1/block3/conv1/bn/beta          [128]                       128
group1/block3/conv2/W                [3, 3, 128, 128]         147456
group1/block3/conv2/bn/gamma         [128]                       128
group1/block3/conv2/bn/beta          [128]                       128
group1/block3/conv3/W                [1, 1, 128, 512]          65536
group1/block3/conv3/bn/gamma         [512]                       512
group1/block3/conv3/bn/beta          [512]                       512
group2/block0/conv1/W                [1, 1, 512, 256]         131072
group2/block0/conv1/bn/gamma         [256]                       256
group2/block0/conv1/bn/beta          [256]                       256
group2/block0/conv2/W                [3, 3, 256, 256]         589824
group2/block0/conv2/bn/gamma         [256]                       256
group2/block0/conv2/bn/beta          [256]                       256
group2/block0/conv3/W                [1, 1, 256, 1024]        262144
group2/block0/conv3/bn/gamma         [1024]                     1024
group2/block0/conv3/bn/beta          [1024]                     1024
group2/block0/convshortcut/W         [1, 1, 512, 1024]        524288
group2/block0/convshortcut/bn/gamma  [1024]                     1024
group2/block0/convshortcut/bn/beta   [1024]                     1024
group2/block1/conv1/W                [1, 1, 1024, 256]        262144
group2/block1/conv1/bn/gamma         [256]                       256
group2/block1/conv1/bn/beta          [256]                       256
group2/block1/conv2/W                [3, 3, 256, 256]         589824
group2/block1/conv2/bn/gamma         [256]                       256
group2/block1/conv2/bn/beta          [256]                       256
group2/block1/conv3/W                [1, 1, 256, 1024]        262144
group2/block1/conv3/bn/gamma         [1024]                     1024
group2/block1/conv3/bn/beta          [1024]                     1024
group2/block2/conv1/W                [1, 1, 1024, 256]        262144
group2/block2/conv1/bn/gamma         [256]                       256
group2/block2/conv1/bn/beta          [256]                       256
group2/block2/conv2/W                [3, 3, 256, 256]         589824
group2/block2/conv2/bn/gamma         [256]                       256
group2/block2/conv2/bn/beta          [256]                       256
group2/block2/conv3/W                [1, 1, 256, 1024]        262144
group2/block2/conv3/bn/gamma         [1024]                     1024
group2/block2/conv3/bn/beta          [1024]                     1024
group2/block3/conv1/W                [1, 1, 1024, 256]        262144
group2/block3/conv1/bn/gamma         [256]                       256
group2/block3/conv1/bn/beta          [256]                       256
group2/block3/conv2/W                [3, 3, 256, 256]         589824
group2/block3/conv2/bn/gamma         [256]                       256
group2/block3/conv2/bn/beta          [256]                       256
group2/block3/conv3/W                [1, 1, 256, 1024]        262144
group2/block3/conv3/bn/gamma         [1024]                     1024
group2/block3/conv3/bn/beta          [1024]                     1024
group2/block4/conv1/W                [1, 1, 1024, 256]        262144
group2/block4/conv1/bn/gamma         [256]                       256
group2/block4/conv1/bn/beta          [256]                       256
group2/block4/conv2/W                [3, 3, 256, 256]         589824
group2/block4/conv2/bn/gamma         [256]                       256
group2/block4/conv2/bn/beta          [256]                       256
group2/block4/conv3/W                [1, 1, 256, 1024]        262144
group2/block4/conv3/bn/gamma         [1024]                     1024
group2/block4/conv3/bn/beta          [1024]                     1024
group2/block5/conv1/W                [1, 1, 1024, 256]        262144
group2/block5/conv1/bn/gamma         [256]                       256
group2/block5/conv1/bn/beta          [256]                       256
group2/block5/conv2/W                [3, 3, 256, 256]         589824
group2/block5/conv2/bn/gamma         [256]                       256
group2/block5/conv2/bn/beta          [256]                       256
group2/block5/conv3/W                [1, 1, 256, 1024]        262144
group2/block5/conv3/bn/gamma         [1024]                     1024
group2/block5/conv3/bn/beta          [1024]                     1024
group3/block0/conv1/W                [1, 1, 1024, 512]        524288
group3/block0/conv1/bn/gamma         [512]                       512
group3/block0/conv1/bn/beta          [512]                       512
group3/block0/conv2/W                [3, 3, 512, 512]        2359296
group3/block0/conv2/bn/gamma         [512]                       512
group3/block0/conv2/bn/beta          [512]                       512
group3/block0/conv3/W                [1, 1, 512, 2048]       1048576
group3/block0/conv3/bn/gamma         [2048]                     2048
group3/block0/conv3/bn/beta          [2048]                     2048
group3/block0/convshortcut/W         [1, 1, 1024, 2048]      2097152
group3/block0/convshortcut/bn/gamma  [2048]                     2048
group3/block0/convshortcut/bn/beta   [2048]                     2048
group3/block1/conv1/W                [1, 1, 2048, 512]       1048576
group3/block1/conv1/bn/gamma         [512]                       512
group3/block1/conv1/bn/beta          [512]                       512
group3/block1/conv2/W                [3, 3, 512, 512]        2359296
group3/block1/conv2/bn/gamma         [512]                       512
group3/block1/conv2/bn/beta          [512]                       512
group3/block1/conv3/W                [1, 1, 512, 2048]       1048576
group3/block1/conv3/bn/gamma         [2048]                     2048
group3/block1/conv3/bn/beta          [2048]                     2048
group3/block2/conv1/W                [1, 1, 2048, 512]       1048576
group3/block2/conv1/bn/gamma         [512]                       512
group3/block2/conv1/bn/beta          [512]                       512
group3/block2/conv2/W                [3, 3, 512, 512]        2359296
group3/block2/conv2/bn/gamma         [512]                       512
group3/block2/conv2/bn/beta          [512]                       512
group3/block2/conv3/W                [1, 1, 512, 2048]       1048576
group3/block2/conv3/bn/gamma         [2048]                     2048
group3/block2/conv3/bn/beta          [2048]                     2048
linear/W                             [2048, 1000]            2048000
linear/b                             [1000]                     1000
Number of trainable variables: 161
Number of parameters (elements): 25557032
Storage space needed for all trainable variables: 97.49MB
[0714 16:17:31 @base.py:207] Setup callbacks graph ...
[0714 16:17:31 @argtools.py:138] WRN Starting a process with 'fork' method is not safe and may consume unnecessary extra CPU memory. Use 'forkserver' or 'spawn' method (available after Py3.4) instead if you run into any issues. See https://docs.python.org/3/library/multiprocessing.html#contexts-and-start-methods on how to set them.
…
[0519 07:05:47 @registry.py:80] 'fastrcnn' input: [?, 256, 7, 7]
WARNING:tensorflow:Entity <bound method Dense.call of <tensorflow.python.layers.core.Dense object at 0x7f6fb0056c18>> could not be transformed and will be executed as-is. Please report this to the AutgoGraph team. When filing the bug, set the verbosity to 10 (on Linux, `export AUTOGRAPH_VERBOSITY=10`) and attach the full output. Cause: converting <bound method Dense.call of <tensorflow.python.layers.core.Dense object at 0x7f6fb0056c18>>: AssertionError: Bad argument number for Name: 3, expecting 4
[0519 07:05:47 @registry.py:90]   'fastrcnn/fc6': [?, 256, 7, 7] --> [?, 1024]
WARNING:tensorflow:Entity <bound method Dense.call of <tensorflow.python.layers.core.Dense object at 0x7f6fb0056f28>> could not be transformed and will be executed as-is. Please report this to the AutgoGraph team. When filing the bug, set the verbosity to 10 (on Linux, `export AUTOGRAPH_VERBOSITY=10`) and attach the full output. Cause: converting <bound method Dense.call of <tensorflow.python.layers.core.Dense object at 0x7f6fb0056f28>>: AssertionError: Bad argument number for Name: 3, expecting 4
[0519 07:05:47 @registry.py:90]   'fastrcnn/fc7': [?, 1024] --> [?, 1024]
[0519 07:05:47 @registry.py:93] 'fastrcnn' output: [?, 1024]
[0519 07:05:47 @registry.py:80] 'fastrcnn/outputs' input: [?, 1024]
WARNING:tensorflow:Entity <bound method Dense.call of <tensorflow.python.layers.core.Dense object at 0x7f6f7271e668>> could not be transformed and will be executed as-is. Please report this to the AutgoGraph team. When filing the bug, set the verbosity to 10 (on Linux, `export AUTOGRAPH_VERBOSITY=10`) and attach the full output. Cause: converting <bound method Dense.call of <tensorflow.python.layers.core.Dense object at 0x7f6f7271e668>>: AssertionError: Bad argument number for Name: 3, expecting 4
[0519 07:05:47 @registry.py:90]   'fastrcnn/outputs/class': [?, 1024] --> [?, 2]
WARNING:tensorflow:Entity <bound method Dense.call of <tensorflow.python.layers.core.Dense object at 0x7f6fb00569e8>> could not be transformed and will be executed as-is. Please report this to the AutgoGraph team. When filing the bug, set the verbosity to 10 (on Linux, `export AUTOGRAPH_VERBOSITY=10`) and attach the full output. Cause: converting <bound method Dense.call of <tensorflow.python.layers.core.Dense object at 0x7f6fb00569e8>>: AssertionError: Bad argument number for Name: 3, expecting 4
[0519 07:05:47 @registry.py:90]   'fastrcnn/outputs/box': [?, 1024] --> [?, 8]
[0519 07:05:47 @registry.py:93] 'fastrcnn/outputs' output: [?, 2], [?, 2, 4]
[0519 07:05:47 @registry.py:80] 'maskrcnn' input: [?, 256, 14, 14]
WARNING:tensorflow:Entity <bound method Conv.call of <tensorflow.python.layers.convolutional.Conv2D object at 0x7f6f724ad6d8>> could not be transformed and will be executed as-is. Please report this to the AutgoGraph team. When filing the bug, set the verbosity to 10 (on Linux, `export AUTOGRAPH_VERBOSITY=10`) and attach the full output. Cause: converting <bound method Conv.call of <tensorflow.python.layers.convolutional.Conv2D object at 0x7f6f724ad6d8>>: AssertionError: Bad argument number for Name: 3, expecting 4
[0519 07:05:48 @registry.py:90]   'maskrcnn/fcn0': [?, 256, 14, 14] --> [?, 256, 14, 14]
WARNING:tensorflow:Entity <bound method Conv.call of <tensorflow.python.layers.convolutional.Conv2D object at 0x7f6f724ad710>> could not be transformed and will be executed as-is. Please report this to the AutgoGraph team. When filing the bug, set the verbosity to 10 (on Linux, `export AUTOGRAPH_VERBOSITY=10`) and attach the full output. Cause: converting <bound method Conv.call of <tensorflow.python.layers.convolutional.Conv2D object at 0x7f6f724ad710>>: AssertionError: Bad argument number for Name: 3, expecting 4
[0519 07:05:48 @registry.py:90]   'maskrcnn/fcn1': [?, 256, 14, 14] --> [?, 256, 14, 14]
WARNING:tensorflow:Entity <bound method Conv.call of <tensorflow.python.layers.convolutional.Conv2D object at 0x7f6f724ad828>> could not be transformed and will be executed as-is. Please report this to the AutgoGraph team. When filing the bug, set the verbosity to 10 (on Linux, `export AUTOGRAPH_VERBOSITY=10`) and attach the full output. Cause: converting <bound method Conv.call of <tensorflow.python.layers.convolutional.Conv2D object at 0x7f6f724ad828>>: AssertionError: Bad argument number for Name: 3, expecting 4
[0519 07:05:48 @registry.py:90]   'maskrcnn/fcn2': [?, 256, 14, 14] --> [?, 256, 14, 14]
WARNING:tensorflow:Entity <bound method Conv.call of <tensorflow.python.layers.convolutional.Conv2D object at 0x7f6f724ad7f0>> could not be transformed and will be executed as-is. Please report this to the AutgoGraph team. When filing the bug, set the verbosity to 10 (on Linux, `export AUTOGRAPH_VERBOSITY=10`) and attach the full output. Cause: converting <bound method Conv.call of <tensorflow.python.layers.convolutional.Conv2D object at 0x7f6f724ad7f0>>: AssertionError: Bad argument number for Name: 3, expecting 4
[0519 07:05:48 @registry.py:90]   'maskrcnn/fcn3': [?, 256, 14, 14] --> [?, 256, 14, 14]
[0519 07:05:48 @registry.py:90]   'maskrcnn/deconv': [?, 256, 14, 14] --> [?, 256, 28, 28]
WARNING:tensorflow:Entity <bound method Conv.call of <tensorflow.python.layers.convolutional.Conv2D object at 0x7f6f723d2e10>> could not be transformed and will be executed as-is. Please report this to the AutgoGraph team. When filing the bug, set the verbosity to 10 (on Linux, `export AUTOGRAPH_VERBOSITY=10`) and attach the full output. Cause: converting <bound method Conv.call of <tensorflow.python.layers.convolutional.Conv2D object at 0x7f6f723d2e10>>: AssertionError: Bad argument number for Name: 3, expecting 4
[0519 07:05:48 @registry.py:90]   'maskrcnn/conv': [?, 256, 28, 28] --> [?, 1, 28, 28]
[0519 07:05:48 @registry.py:93] 'maskrcnn' output: [?, 1, 28, 28]
[0519 07:05:48 @collection.py:146] New collections created in tower : tf.GraphKeys.MODEL_VARIABLES of size 55
[0519 07:05:48 @sessinit.py:87] WRN The following variables are in the checkpoint, but not found in the graph: global_step, learning_rate
2020-05-19 07:05:48.813385: I tensorflow/core/platform/cpu_feature_guard.cc:142] Your CPU supports instructions that this TensorFlow binary was not compiled to use: AVX2 FMA
…
[0403 05:54:24 @train.py:85] Total passes of the training set is: 250
[0403 05:54:24 @sessinit.py:294] Loading dictionary from examples/FasterRCNN/def_model/COCO-MaskRCNN-R101FPN3xCasAug.npz ...
[0403 05:54:27 @train.py:118] max_epoch:4320.0
[0403 05:54:27 @train.py:119] total_passes:250
[0403 05:54:27 @input_source.py:221] Setting up the queue 'QueueInput/input_queue' for CPU prefetching ...
[0403 05:54:27 @training.py:108] Building graph for training tower 0 on device /gpu:0 ...
[0403 05:54:28 @argtools.py:138] WRN Some BatchNorm layer uses moving_mean/moving_variance in training.
[0403 05:54:28 @registry.py:90] 'conv0': [1, 3, 1600, 1600] --> [1, 64, 797, 797]
[0403 05:54:28 @registry.py:90] 'pool0': [1, 64, 798, 798] --> [1, 64, 398, 398]
[0403 05:54:28 @registry.py:90] 'group0/block0/conv1': [1, 64, 398, 398] --> [1, 64, 398, 398]
[0403 05:54:28 @registry.py:90] 'group0/block0/conv2': [1, 64, 398, 398] --> [1, 64, 398, 398]
[0403 05:54:28 @registry.py:90] 'group0/block0/conv3': [1, 64, 398, 398] --> [1, 256, 398, 398]
[0403 05:54:28 @registry.py:90] 'group0/block0/convshortcut': [1, 64, 398, 398] --> [1, 256, 398, 398]
[0403 05:54:28 @registry.py:90] 'group0/block1/conv1': [1, 256, 398, 398] --> [1, 64, 398, 398]
[0403 05:54:28 @registry.py:90] 'group0/block1/conv2': [1, 64, 398, 398] --> [1, 64, 398, 398]
[0403 05:54:28 @registry.py:90] 'group0/block1/conv3': [1, 64, 398, 398] --> [1, 256, 398, 398]
[0403 05:54:28 @registry.py:90] 'group0/block2/conv1': [1, 256, 398, 398] --> [1, 64, 398, 398]
[0403 05:54:28 @registry.py:90] 'group0/block2/conv2': [1, 64, 398, 398] --> [1, 64, 398, 398]
[0403 05:54:28 @registry.py:90] 'group0/block2/conv3': [1, 64, 398, 398] --> [1, 256, 398, 398]
[0403 05:54:28 @registry.py:90] 'group1/block0/conv1': [1, 256, 398, 398] --> [1, 128, 398, 398]
[0403 05:54:29 @registry.py:90] 'group1/block0/conv2': [1, 128, 399, 399] --> [1, 128, 199, 199]
[0403 05:54:29 @registry.py:90] 'group1/block0/conv3': [1, 128, 199, 199] --> [1, 512, 199, 199]
[0403 05:54:29 @registry.py:90] 'group1/block0/convshortcut': [1, 256, 398, 398] --> [1, 512, 199, 199]
[0403 05:54:29 @registry.py:90] 'group1/block1/conv1': [1, 512, 199, 199] --> [1, 128, 199, 199]
[0403 05:54:29 @registry.py:90] 'group1/block1/conv2': [1, 128, 199, 199] --> [1, 128, 199, 199]
[0403 05:54:29 @registry.py:90] 'group1/block1/conv3': [1, 128, 199, 199] --> [1, 512, 199, 199]
[0403 05:54:29 @registry.py:90] 'group1/block2/conv1': [1, 512, 199, 199] --> [1, 128, 199, 199]
[0403 05:54:29 @registry.py:90] 'group1/block2/conv2': [1, 128, 199, 199] --> [1, 128, 199, 199]
[0403 05:54:29 @registry.py:90] 'group1/block2/conv3': [1, 128, 199, 199] --> [1, 512, 199, 199]
[0403 05:54:29 @registry.py:90] 'group1/block3/conv1': [1, 512, 199, 199] --> [1, 128, 199, 199]
[0403 05:54:29 @registry.py:90] 'group1/block3/conv2': [1, 128, 199, 199] --> [1, 128, 199, 199]
[0403 05:54:29 @registry.py:90] 'group1/block3/conv3': [1, 128, 199, 199] --> [1, 512, 199, 199]
[0403 05:54:29 @registry.py:90] 'group2/block0/conv1': [1, 512, 199, 199] --> [1, 256, 199, 199]
[0403 05:54:29 @registry.py:90] 'group2/block0/conv2': [1, 256, 200, 200] --> [1, 256, 99, 99]
[0403 05:54:29 @registry.py:90] 'group2/block0/conv3': [1, 256, 99, 99] --> [1, 1024, 99, 99]
[0403 05:54:29 @registry.py:90] 'group2/block0/convshortcut': [1, 512, 199, 199] --> [1, 1024, 100, 100]
[0403 05:54:29 @registry.py:90] 'group2/block1/conv1': [1, 1024, 100, 100] --> [1, 256, 100, 100]
[0403 05:54:29 @registry.py:90] 'group2/block1/conv2': [1, 256, 100, 100] --> [1, 256, 100, 100]
[0403 05:54:29 @registry.py:90] 'group2/block1/conv3': [1, 256, 100, 100] --> [1, 1024, 100, 100]
[0403 05:54:29 @registry.py:90] 'group2/block2/conv1': [1, 1024, 100, 100] --> [1, 256, 100, 100]
[0403 05:54:29 @registry.py:90] 'group2/block2/conv2': [1, 256, 100, 100] --> [1, 256, 100, 100]
[0403 05:54:29 @registry.py:90] 'group2/block2/conv3': [1, 256, 100, 100] --> [1, 1024, 100, 100]
[0403 05:54:29 @registry.py:90] 'group2/block3/conv1': [1, 1024, 100, 100] --> [1, 256, 100, 100]
[0403 05:54:29 @registry.py:90] 'group2/block3/conv2': [1, 256, 100, 100] --> [1, 256, 100, 100]
[0403 05:54:29 @registry.py:90] 'group2/block3/conv3': [1, 256, 100, 100] --> [1, 1024, 100, 100]
[0403 05:54:29 @registry.py:90] 'group2/block4/conv1': [1, 1024, 100, 100] --> [1, 256, 100, 100]
[0403 05:54:29 @registry.py:90] 'group2/block4/conv2': [1, 256, 100, 100] --> [1, 256, 100, 100]
[0403 05:54:29 @registry.py:90] 'group2/block4/conv3': [1, 256, 100, 100] --> [1, 1024, 100, 100]
[0403 05:54:29 @registry.py:90] 'group2/block5/conv1': [1, 1024, 100, 100] --> [1, 256, 100, 100]
[0403 05:54:29 @registry.py:90] 'group2/block5/conv2': [1, 256, 100, 100] --> [1, 256, 100, 100]
[0403 05:54:29 @registry.py:90] 'group2/block5/conv3': [1, 256, 100, 100] --> [1, 1024, 100, 100]
[0403 05:54:30 @registry.py:90] 'group2/block6/conv1': [1, 1024, 100, 100] --> [1, 256, 100, 100]
[0403 05:54:30 @registry.py:90] 'group2/block6/conv2': [1, 256, 100, 100] --> [1, 256, 100, 100]
[0403 05:54:30 @registry.py:90] 'group2/block6/conv3': [1, 256, 100, 100] --> [1, 1024, 100, 100]
[0403 05:54:30 @registry.py:90] 'group2/block7/conv1': [1, 1024, 100, 100] --> [1, 256, 100, 100]
[0403 05:54:30 @registry.py:90] 'group2/block7/conv2': [1, 256, 100, 100] --> [1, 256, 100, 100]
[0403 05:54:30 @registry.py:90] 'group2/block7/conv3': [1, 256, 100, 100] --> [1, 1024, 100, 100]
[0403 05:54:30 @registry.py:90] 'group2/block8/conv1': [1, 1024, 100, 100] --> [1, 256, 100, 100]
[0403 05:54:30 @registry.py:90] 'group2/block8/conv2': [1, 256, 100, 100] --> [1, 256, 100, 100]
[0403 05:54:30 @registry.py:90] 'group2/block8/conv3': [1, 256, 100, 100] --> [1, 1024, 100, 100]
[0403 05:54:30 @registry.py:90] 'group2/block9/conv1': [1, 1024, 100, 100] --> [1, 256, 100, 100]
[0403 05:54:30 @registry.py:90] 'group2/block9/conv2': [1, 256, 100, 100] --> [1, 256, 100, 100]
[0403 05:54:30 @registry.py:90] 'group2/block9/conv3': [1, 256, 100, 100] --> [1, 1024, 100, 100]
[0403 05:54:30 @registry.py:90] 'group2/block10/conv1': [1, 1024, 100, 100] --> [1, 256, 100, 100]
[0403 05:54:30 @registry.py:90] 'group2/block10/conv2': [1, 256, 100, 100] --> [1, 256, 100, 100]
[0403 05:54:30 @registry.py:90] 'group2/block10/conv3': [1, 256, 100, 100] --> [1, 1024, 100, 100]
[0403 05:54:30 @registry.py:90] 'group2/block11/conv1': [1, 1024, 100, 100] --> [1, 256, 100, 100]
[0403 05:54:30 @registry.py:90] 'group2/block11/conv2': [1, 256, 100, 100] --> [1, 256, 100, 100]
[0403 05:54:30 @registry.py:90] 'group2/block11/conv3': [1, 256, 100, 100] --> [1, 1024, 100, 100]
[0403 05:54:30 @registry.py:90] 'group2/block12/conv1': [1, 1024, 100, 100] --> [1, 256, 100, 100]
[0403 05:54:30 @registry.py:90] 'group2/block12/conv2': [1, 256, 100, 100] --> [1, 256, 100, 100]
[0403 05:54:30 @registry.py:90] 'group2/block12/conv3': [1, 256, 100, 100] --> [1, 1024, 100, 100]
[0403 05:54:30 @registry.py:90] 'group2/block13/conv1': [1, 1024, 100, 100] --> [1, 256, 100, 100]
[0403 05:54:30 @registry.py:90] 'group2/block13/conv2': [1, 256, 100, 100] --> [1, 256, 100, 100]
[0403 05:54:30 @registry.py:90] 'group2/block13/conv3': [1, 256, 100, 100] --> [1, 1024, 100, 100]
[0403 05:54:30 @registry.py:90] 'group2/block14/conv1': [1, 1024, 100, 100] --> [1, 256, 100, 100]
[0403 05:54:30 @registry.py:90] 'group2/block14/conv2': [1, 256, 100, 100] --> [1, 256, 100, 100]
[0403 05:54:30 @registry.py:90] 'group2/block14/conv3': [1, 256, 100, 100] --> [1, 1024, 100, 100]
[0403 05:54:30 @registry.py:90] 'group2/block15/conv1': [1, 1024, 100, 100] --> [1, 256, 100, 100]
[0403 05:54:30 @registry.py:90] 'group2/block15/conv2': [1, 256, 100, 100] --> [1, 256, 100, 100]
[0403 05:54:30 @registry.py:90] 'group2/block15/conv3': [1, 256, 100, 100] --> [1, 1024, 100, 100]
[0403 05:54:31 @registry.py:90] 'group2/block16/conv1': [1, 1024, 100, 100] --> [1, 256, 100, 100]
[0403 05:54:31 @registry.py:90] 'group2/block16/conv2': [1, 256, 100, 100] --> [1, 256, 100, 100]
[0403 05:54:31 @registry.py:90] 'group2/block16/conv3': [1, 256, 100, 100] --> [1, 1024, 100, 100]
[0403 05:54:31 @registry.py:90] 'group2/block17/conv1': [1, 1024, 100, 100] --> [1, 256, 100, 100]
[0403 05:54:31 @registry.py:90] 'group2/block17/conv2': [1, 256, 100, 100] --> [1, 256, 100, 100]
[0403 05:54:31 @registry.py:90] 'group2/block17/conv3': [1, 256, 100, 100] --> [1, 1024, 100, 100]
[0403 05:54:31 @registry.py:90] 'group2/block18/conv1': [1, 1024, 100, 100] --> [1, 256, 100, 100]
[0403 05:54:31 @registry.py:90] 'group2/block18/conv2': [1, 256, 100, 100] --> [1, 256, 100, 100]
[0403 05:54:31 @registry.py:90] 'group2/block18/conv3': [1, 256, 100, 100] --> [1, 1024, 100, 100]
[0403 05:54:31 @registry.py:90] 'group2/block19/conv1': [1, 1024, 100, 100] --> [1, 256, 100, 100]
[0403 05:54:31 @registry.py:90] 'group2/block19/conv2': [1, 256, 100, 100] --> [1, 256, 100, 100]
[0403 05:54:31 @registry.py:90] 'group2/block19/conv3': [1, 256, 100, 100] --> [1, 1024, 100, 100]
[0403 05:54:31 @registry.py:90] 'group2/block20/conv1': [1, 1024, 100, 100] --> [1, 256, 100, 100]
[0403 05:54:31 @registry.py:90] 'group2/block20/conv2': [1, 256, 100, 100] --> [1, 256, 100, 100]
[0403 05:54:31 @registry.py:90] 'group2/block20/conv3': [1, 256, 100, 100] --> [1, 1024, 100, 100]
[0403 05:54:31 @registry.py:90] 'group2/block21/conv1': [1, 1024, 100, 100] --> [1, 256, 100, 100]
[0403 05:54:31 @registry.py:90] 'group2/block21/conv2': [1, 256, 100, 100] --> [1, 256, 100, 100]
[0403 05:54:31 @registry.py:90] 'group2/block21/conv3': [1, 256, 100, 100] --> [1, 1024, 100, 100]
[0403 05:54:31 @registry.py:90] 'group2/block22/conv1': [1, 1024, 100, 100] --> [1, 256, 100, 100]
[0403 05:54:31 @registry.py:90] 'group2/block22/conv2': [1, 256, 100, 100] --> [1, 256, 100, 100]
[0403 05:54:31 @registry.py:90] 'group2/block22/conv3': [1, 256, 100, 100] --> [1, 1024, 100, 100]
[0403 05:54:31 @registry.py:90] 'group3/block0/conv1': [1, 1024, 100, 100] --> [1, 512, 100, 100]
[0403 05:54:31 @registry.py:90] 'group3/block0/conv2': [1, 512, 101, 101] --> [1, 512, 50, 50]
[0403 05:54:31 @registry.py:90] 'group3/block0/conv3': [1, 512, 50, 50] --> [1, 2048, 50, 50]
[0403 05:54:31 @registry.py:90] 'group3/block0/convshortcut': [1, 1024, 100, 100] --> [1, 2048, 50, 50]
[0403 05:54:31 @registry.py:90] 'group3/block1/conv1': [1, 2048, 50, 50] --> [1, 512, 50, 50]
[0403 05:54:31 @registry.py:90] 'group3/block1/conv2': [1, 512, 50, 50] --> [1, 512, 50, 50]
[0403 05:54:31 @registry.py:90] 'group3/block1/conv3': [1, 512, 50, 50] --> [1, 2048, 50, 50]
[0403 05:54:31 @registry.py:90] 'group3/block2/conv1': [1, 2048, 50, 50] --> [1, 512, 50, 50]
[0403 05:54:31 @registry.py:90] 'group3/block2/conv2': [1, 512, 50, 50] --> [1, 512, 50, 50]
[0403 05:54:32 @registry.py:90] 'group3/block2/conv3': [1, 512, 50, 50] --> [1, 2048, 50, 50]
[0403 05:54:32 @registry.py:80] 'fpn' input: [1, 256, 398, 398], [1, 512, 199, 199], [1, 1024, 100, 100], [1, 2048, 50, 50]
[0403 05:54:32 @registry.py:90]   'fpn/lateral_1x1_c2': [1, 256, 398, 398] --> [1, 256, 398, 398]
[0403 05:54:32 @registry.py:90]   'fpn/lateral_1x1_c3': [1, 512, 199, 199] --> [1, 256, 199, 199]
[0403 05:54:32 @registry.py:90]   'fpn/lateral_1x1_c4': [1, 1024, 100, 100] --> [1, 256, 100, 100]
[0403 05:54:32 @registry.py:90]   'fpn/lateral_1x1_c5': [1, 2048, 50, 50] --> [1, 256, 50, 50]
[0403 05:54:32 @registry.py:90]   'fpn/upsample_lat5': [1, 256, 50, 50] --> [1, 256, 100, 100]
[0403 05:54:32 @registry.py:90]   'fpn/upsample_lat4': [1, 256, 100, 100] --> [1, 256, 200, 200]
[0403 05:54:32 @registry.py:90]   'fpn/upsample_lat3': [1, 256, 200, 200] --> [1, 256, 400, 400]
[0403 05:54:32 @registry.py:90]   'fpn/posthoc_3x3_p2': [1, 256, 400, 400] --> [1, 256, 400, 400]
[0403 05:54:32 @registry.py:90]   'fpn/posthoc_3x3_p3': [1, 256, 200, 200] --> [1, 256, 200, 200]
[0403 05:54:32 @registry.py:90]   'fpn/posthoc_3x3_p4': [1, 256, 100, 100] --> [1, 256, 100, 100]
[0403 05:54:32 @registry.py:90]   'fpn/posthoc_3x3_p5': [1, 256, 50, 50] --> [1, 256, 50, 50]
[0403 05:54:32 @registry.py:90]   'fpn/maxpool_p6': [1, 256, 50, 50] --> [1, 256, 25, 25]
[0403 05:54:32 @registry.py:93] 'fpn' output: [1, 256, 400, 400], [1, 256, 200, 200], [1, 256, 100, 100], [1, 256, 50, 50], [1, 256, 25, 25]
[0403 05:54:32 @registry.py:80] 'rpn' input: [1, 256, 400, 400]
[0403 05:54:32 @registry.py:90]   'rpn/conv0': [1, 256, 400, 400] --> [1, 256, 400, 400]
[0403 05:54:32 @registry.py:90]   'rpn/class': [1, 256, 400, 400] --> [1, 3, 400, 400]
[0403 05:54:32 @registry.py:90]   'rpn/box': [1, 256, 400, 400] --> [1, 12, 400, 400]
[0403 05:54:32 @registry.py:93] 'rpn' output: [400, 400, 3], [400, 400, 3, 4]
[0403 05:54:34 @registry.py:80] 'cascade_rcnn_stage1/head' input: [?, 256, 7, 7]
[0403 05:54:34 @registry.py:90]   'cascade_rcnn_stage1/head/fc6': [?, 256, 7, 7] --> [?, 1024]
[0403 05:54:34 @registry.py:90]   'cascade_rcnn_stage1/head/fc7': [?, 1024] --> [?, 1024]
[0403 05:54:34 @registry.py:93] 'cascade_rcnn_stage1/head' output: [?, 1024]
[0403 05:54:34 @registry.py:80] 'cascade_rcnn_stage1/outputs' input: [?, 1024]
[0403 05:54:34 @registry.py:90]   'cascade_rcnn_stage1/outputs/class': [?, 1024] --> [?, 2]
[0403 05:54:34 @registry.py:90]   'cascade_rcnn_stage1/outputs/box': [?, 1024] --> [?, 4]
[0403 05:54:34 @registry.py:93] 'cascade_rcnn_stage1/outputs' output: [?, 2], [?, 1, 4]
[0403 05:54:35 @registry.py:80] 'cascade_rcnn_stage2/head' input: [?, 256, 7, 7]
[0403 05:54:35 @registry.py:90]   'cascade_rcnn_stage2/head/fc6': [?, 256, 7, 7] --> [?, 1024]
[0403 05:54:35 @registry.py:90]   'cascade_rcnn_stage2/head/fc7': [?, 1024] --> [?, 1024]
[0403 05:54:35 @registry.py:93] 'cascade_rcnn_stage2/head' output: [?, 1024]
[0403 05:54:35 @registry.py:80] 'cascade_rcnn_stage2/outputs' input: [?, 1024]
[0403 05:54:35 @registry.py:90]   'cascade_rcnn_stage2/outputs/class': [?, 1024] --> [?, 2]
[0403 05:54:35 @registry.py:90]   'cascade_rcnn_stage2/outputs/box': [?, 1024] --> [?, 4]
[0403 05:54:35 @registry.py:93] 'cascade_rcnn_stage2/outputs' output: [?, 2], [?, 1, 4]
[0403 05:54:35 @registry.py:80] 'cascade_rcnn_stage3/head' input: [?, 256, 7, 7]
[0403 05:54:35 @registry.py:90]   'cascade_rcnn_stage3/head/fc6': [?, 256, 7, 7] --> [?, 1024]
[0403 05:54:35 @registry.py:90]   'cascade_rcnn_stage3/head/fc7': [?, 1024] --> [?, 1024]
[0403 05:54:35 @registry.py:93] 'cascade_rcnn_stage3/head' output: [?, 1024]
[0403 05:54:35 @registry.py:80] 'cascade_rcnn_stage3/outputs' input: [?, 1024]
[0403 05:54:35 @registry.py:90]   'cascade_rcnn_stage3/outputs/class': [?, 1024] --> [?, 2]
[0403 05:54:35 @registry.py:90]   'cascade_rcnn_stage3/outputs/box': [?, 1024] --> [?, 4]
[0403 05:54:35 @registry.py:93] 'cascade_rcnn_stage3/outputs' output: [?, 2], [?, 1, 4]
[0403 05:54:36 @registry.py:80] 'maskrcnn' input: [?, 256, 14, 14]
[0403 05:54:36 @registry.py:90]   'maskrcnn/fcn0': [?, 256, 14, 14] --> [?, 256, 14, 14]
[0403 05:54:36 @registry.py:90]   'maskrcnn/fcn1': [?, 256, 14, 14] --> [?, 256, 14, 14]
[0403 05:54:36 @registry.py:90]   'maskrcnn/fcn2': [?, 256, 14, 14] --> [?, 256, 14, 14]
[0403 05:54:36 @registry.py:90]   'maskrcnn/fcn3': [?, 256, 14, 14] --> [?, 256, 14, 14]
[0403 05:54:36 @registry.py:90]   'maskrcnn/deconv': [?, 256, 14, 14] --> [?, 256, 28, 28]
[0403 05:54:36 @registry.py:90]   'maskrcnn/conv': [?, 256, 28, 28] --> [?, 1, 28, 28]
[0403 05:54:36 @registry.py:93] 'maskrcnn' output: [?, 1, 28, 28]
[0403 05:54:37 @regularize.py:97] regularize_cost() found 122 variables to regularize.
[0403 05:54:37 @regularize.py:21] The following tensors will be regularized: group1/block0/conv1/W:0, group1/block0/conv2/W:0, group1/block0/conv3/W:0, group1/block0/convshortcut/W:0, group1/block1/conv1/W:0, group1/block1/conv2/W
…
n2/W:0, maskrcnn/fcn3/W:0, maskrcnn/deconv/W:0, maskrcnn/conv/W:0
/home/madhav3101/env1/lib/python3.7/site-packages/tensorflow/python/ops/gradients_impl.py:110: UserWarning: Converting sparse IndexedSlices to a dense Tensor of unknown shape. This may consume a large amount of memory.
  ""Converting sparse IndexedSlices to a dense Tensor of unknown shape. ""
[0403 05:54:47 @model_utils.py:67] List of Trainable Variables: 
name                                 shape                 #elements
-----------------------------------  ------------------  -----------
group1/block0/conv1/W                [1, 1, 256, 128]          32768
group1/block0/conv1/bn/gamma         [128]                       128
group1/block0/conv1/bn/beta          [128]                       128
group1/block0/conv2/W                [3, 3, 128, 128]         147456
group1/block0/conv2/bn/gamma         [128]                       128
group1/block0/conv2/bn/beta          [128]                       128
group1/block0/conv3/W                [1, 1, 128, 512]          65536
group1/block0/conv3/bn/gamma         [512]                       512
group1/block0/conv3/bn/beta          [512]                       512
group1/block0/convshortcut/W         [1, 1, 256, 512]         131072
group1/block0/convshortcut/bn/gamma  [512]                       512
group1/block0/convshortcut/bn/beta   [512]                       512
group1/block1/conv1/W                [1, 1, 512, 128]          65536
group1/block1/conv1/bn/gamma         [128]                       128
group1/block1/conv1/bn/beta          [128]                       128
group1/block1/conv2/W                [3, 3, 128, 128]         147456
group1/block1/conv2/bn/gamma         [128]                       128
group1/block1/conv2/bn/beta          [128]                       128
group1/block1/conv3/W                [1, 1, 128, 512]          65536
group1/block1/conv3/bn/gamma         [512]                       512
group1/block1/conv3/bn/beta          [512]                       512
group1/block2/conv1/W                [1, 1, 512, 128]          65536
group1/block2/conv1/bn/gamma         [128]                       128
group1/block2/conv1/bn/beta          [128]                       128
group1/block2/conv2/W                [3, 3, 128, 128]         147456
group1/block2/conv2/bn/gamma         [128]                       128
group1/block2/conv2/bn/beta          [128]                       128
group1/block2/conv3/W                [1, 1, 128, 512]          65536
group1/block2/conv3/bn/gamma         [512]                       512
group1/block2/conv3/bn/beta          [512]                       512
group1/block3/conv1/W                [1, 1, 512, 128]          65536
group1/block3/conv1/bn/gamma         [128]                       128
group1/block3/conv1/bn/beta          [128]                       128
group1/block3/conv2/W                [3, 3, 128, 128]         147456
group1/block3/conv2/bn/gamma         [128]                       128
group1/block3/conv2/bn/beta          [128]                       128
group1/block3/conv3/W                [1, 1, 128, 512]          65536
group1/block3/conv3/bn/gamma         [512]                       512
group1/block3/conv3/bn/beta          [512]                       512
group2/block0/conv1/W                [1, 1, 512, 256]         131072
group2/block0/conv1/bn/gamma         [256]                       256
group2/block0/conv1/bn/beta          [256]                       256
group2/block0/conv2/W                [3, 3, 256, 256]         589824
group2/block0/conv2/bn/gamma         [256]                       256
group2/block0/conv2/bn/beta          [256]                       256
group2/block0/conv3/W                [1, 1, 256, 1024]        262144
group2/block0/conv3/bn/gamma         [1024]                     1024
group2/block0/conv3/bn/beta          [1024]                     1024
group2/block0/convshortcut/W         [1, 1, 512, 1024]        524288
group2/block0/convshortcut/bn/gamma  [1024]                     1024
group2/block0/convshortcut/bn/beta   [1024]                     1024
group2/block1/conv1/W                [1, 1, 1024, 256]        262144
group2/block1/conv1/bn/gamma         [256]                       256
group2/block1/conv1/bn/beta          [256]                       256
group2/block1/conv2/W                [3, 3, 256, 256]         589824
group2/block1/conv2/bn/gamma         [256]                       256
group2/block1/conv2/bn/beta          [256]                       256
group2/block1/conv3/W                [1, 1, 256, 1024]        262144
group2/block1/conv3/bn/gamma         [1024]                     1024
group2/block1/conv3/bn/beta          [1024]                     1024
group2/block2/conv1/W                [1, 1, 1024, 256]        262144
group2/block2/conv1/bn/gamma         [256]                       256
group2/block2/conv1/bn/beta          [256]                       256
group2/block2/conv2/W                [3, 3, 256, 256]         589824
group2/block2/conv2/bn/gamma         [256]                       256
group2/block2/conv2/bn/beta          [256]                       256
group2/block2/conv3/W                [1, 1, 256, 1024]        262144
group2/block2/conv3/bn/gamma         [1024]                     1024
group2/block2/conv3/bn/beta          [1024]                     1024
group2/block3/conv1/W                [1, 1, 1024, 256]        262144
group2/block3/conv1/bn/gamma         [256]                       256
group2/block3/conv1/bn/beta          [256]                       256
group2/block3/conv2/W                [3, 3, 256, 256]         589824
group2/block3/conv2/bn/gamma         [256]                       256
group2/block3/conv2/bn/beta          [256]                       256
group2/block3/conv3/W                [1, 1, 256, 1024]        262144
group2/block3/conv3/bn/gamma         [1024]                     1024
group2/block3/conv3/bn/beta          [1024]                     1024
group2/block4/conv1/W                [1, 1, 1024, 256]        262144
group2/block4/conv1/bn/gamma         [256]                       256
group2/block4/conv1/bn/beta          [256]                       256
group2/block4/conv2/W                [3, 3, 256, 256]         589824
group2/block4/conv2/bn/gamma         [256]                       256
group2/block4/conv2/bn/beta          [256]                       256
group2/block4/conv3/W                [1, 1, 256, 1024]        262144
group2/block4/conv3/bn/gamma         [1024]                     1024
group2/block4/conv3/bn/beta          [1024]                     1024
group2/block5/conv1/W                [1, 1, 1024, 256]        262144
group2/block5/conv1/bn/gamma         [256]                       256
group2/block5/conv1/bn/beta          [256]                       256
group2/block5/conv2/W                [3, 3, 256, 256]         589824
group2/block5/conv2/bn/gamma         [256]                       256
group2/block5/conv2/bn/beta          [256]                       256
group2/block5/conv3/W                [1, 1, 256, 1024]        262144
group2/block5/conv3/bn/gamma         [1024]                     1024
group2/block5/conv3/bn/beta          [1024]                     1024
group2/block6/conv1/W                [1, 1, 1024, 256]        262144
group2/block6/conv1/bn/gamma         [256]                       256
group2/block6/conv1/bn/beta          [256]                       256
group2/block6/conv2/W                [3, 3, 256, 256]         589824
group2/block6/conv2/bn/gamma         [256]                       256
group2/block6/conv2/bn/beta          [256]                       256
group2/block6/conv3/W                [1, 1, 256, 1024]        262144
group2/block6/conv3/bn/gamma         [1024]                     1024
group2/block6/conv3/bn/beta          [1024]                     1024
group2/block7/conv1/W                [1, 1, 1024, 256]        262144
group2/block7/conv1/bn/gamma         [256]                       256
group2/block7/conv1/bn/beta          [256]                       256
group2/block7/conv2/W                [3, 3, 256, 256]         589824
group2/block7/conv2/bn/gamma         [256]                       256
group2/block7/conv2/bn/beta          [256]                       256
group2/block7/conv3/W                [1, 1, 256, 1024]        262144
group2/block7/conv3/bn/gamma         [1024]                     1024
group2/block7/conv3/bn/beta          [1024]                     1024
group2/block8/conv1/W                [1, 1, 1024, 256]        262144
group2/block8/conv1/bn/gamma         [256]                       256
group2/block8/conv1/bn/beta          [256]                       256
group2/block8/conv2/W                [3, 3, 256, 256]         589824
group2/block8/conv2/bn/gamma         [256]                       256
group2/block8/conv2/bn/beta          [256]                       256
group2/block8/conv3/W                [1, 1, 256, 1024]        262144
group2/block8/conv3/bn/gamma         [1024]                     1024
group2/block8/conv3/bn/beta          [1024]                     1024
group2/block9/conv1/W                [1, 1, 1024, 256]        262144
group2/block9/conv1/bn/gamma         [256]                       256
group2/block9/conv1/bn/beta          [256]                       256
group2/block9/conv2/W                [3, 3, 256, 256]         589824
group2/block9/conv2/bn/gamma         [256]                       256
group2/block9/conv2/bn/beta          [256]                       256
group2/block9/conv3/W                [1, 1, 256, 1024]        262144
group2/block9/conv3/bn/gamma         [1024]                     1024
group2/block9/conv3/bn/beta          [1024]                     1024
group2/block10/conv1/W               [1, 1, 1024, 256]        262144
group2/block10/conv1/bn/gamma        [256]                       256
group2/block10/conv1/bn/beta         [256]                       256
group2/block10/conv2/W               [3, 3, 256, 256]         589824
group2/block10/conv2/bn/gamma        [256]                       256
group2/block10/conv2/bn/beta         [256]                       256
group2/block10/conv3/W               [1, 1, 256, 1024]        262144
group2/block10/conv3/bn/gamma        [1024]                     1024
group2/block10/conv3/bn/beta         [1024]                     1024
group2/block11/conv1/W               [1, 1, 1024, 256]        262144
group2/block11/conv1/bn/gamma        [256]                       256
group2/block11/conv1/bn/beta         [256]                       256
group2/block11/conv2/W               [3, 3, 256, 256]         589824
group2/block11/conv2/bn/gamma        [256]                       256
group2/block11/conv2/bn/beta         [256]                       256
group2/block11/conv3/W               [1, 1, 256, 1024]        262144
group2/block11/conv3/bn/gamma        [1024]                     1024
group2/block11/conv3/bn/beta         [1024]                     1024
group2/block12/conv1/W               [1, 1, 1024, 256]        262144
group2/block12/conv1/bn/gamma        [256]                       256
group2/block12/conv1/bn/beta         [256]                       256
group2/block12/conv2/W               [3, 3, 256, 256]         589824
group2/block12/conv2/bn/gamma        [256]                       256
group2/block12/conv2/bn/beta         [256]                       256
group2/block12/conv3/W               [1, 1, 256, 1024]        262144
group2/block12/conv3/bn/gamma        [1024]                     1024
group2/block12/conv3/bn/beta         [1024]                     1024
group2/block13/conv1/W               [1, 1, 1024, 256]        262144
group2/block13/conv1/bn/gamma        [256]                       256
group2/block13/conv1/bn/beta         [256]                       256
group2/block13/conv2/W               [3, 3, 256, 256]         589824
group2/block13/conv2/bn/gamma        [256]                       256
group2/block13/conv2/bn/beta         [256]                       256
group2/block13/conv3/W               [1, 1, 256, 1024]        262144
group2/block13/conv3/bn/gamma        [1024]                     1024
group2/block13/conv3/bn/beta         [1024]                     1024
group2/block14/conv1/W               [1, 1, 1024, 256]        262144
group2/block14/conv1/bn/gamma        [256]                       256
group2/block14/conv1/bn/beta         [256]                       256
group2/block14/conv2/W               [3, 3, 256, 256]         589824
group2/block14/conv2/bn/gamma        [256]                       256
group2/block14/conv2/bn/beta         [256]                       256
group2/block14/conv3/W               [1, 1, 256, 1024]        262144
group2/block14/conv3/bn/gamma        [1024]                     1024
group2/block14/conv3/bn/beta         [1024]                     1024
group2/block15/conv1/W               [1, 1, 1024, 256]        262144
group2/block15/conv1/bn/gamma        [256]                       256
group2/block15/conv1/bn/beta         [256]                       256
group2/block15/conv2/W               [3, 3, 256, 256]         589824
group2/block15/conv2/bn/gamma        [256]                       256
group2/block15/conv2/bn/beta         [256]                       256
group2/block15/conv3/W               [1, 1, 256, 1024]        262144
group2/block15/conv3/bn/gamma        [1024]                     1024
group2/block15/conv3/bn/beta         [1024]                     1024
group2/block16/conv1/W               [1, 1, 1024, 256]        262144
group2/block16/conv1/bn/gamma        [256]                       256
group2/block16/conv1/bn/beta         [256]                       256
group2/block16/conv2/W               [3, 3, 256, 256]         589824
group2/block16/conv2/bn/gamma        [256]                       256
group2/block16/conv2/bn/beta         [256]                       256
group2/block16/conv3/W               [1, 1, 256, 1024]        262144
group2/block16/conv3/bn/gamma        [1024]                     1024
group2/block16/conv3/bn/beta         [1024]                     1024
group2/block17/conv1/W               [1, 1, 1024, 256]        262144
group2/block17/conv1/bn/gamma        [256]                       256
group2/block17/conv1/bn/beta         [256]                       256
group2/block17/conv2/W               [3, 3, 256, 256]         589824
group2/block17/conv2/bn/gamma        [256]                       256
group2/block17/conv2/bn/beta         [256]                       256
group2/block17/conv3/W               [1, 1, 256, 1024]        262144
group2/block17/conv3/bn/gamma        [1024]                     1024
group2/block17/conv3/bn/beta         [1024]                     1024
group2/block18/conv1/W               [1, 1, 1024, 256]        262144
group2/block18/conv1/bn/gamma        [256]                       256
group2/block18/conv1/bn/beta         [256]                       256
group2/block18/conv2/W               [3, 3, 256, 256]         589824
group2/block18/conv2/bn/gamma        [256]                       256
group2/block18/conv2/bn/beta         [256]                       256
group2/block18/conv3/W               [1, 1, 256, 1024]        262144
group2/block18/conv3/bn/gamma        [1024]                     1024
group2/block18/conv3/bn/beta         [1024]                     1024
group2/block19/conv1/W               [1, 1, 1024, 256]        262144
group2/block19/conv1/bn/gamma        [256]                       256
group2/block19/conv1/bn/beta         [256]                       256
group2/block19/conv2/W               [3, 3, 256, 256]         589824
group2/block19/conv2/bn/gamma        [256]                       256
group2/block19/conv2/bn/beta         [256]                       256
group2/block19/conv3/W               [1, 1, 256, 1024]        262144
group2/block19/conv3/bn/gamma        [1024]                     1024
group2/block19/conv3/bn/beta         [1024]                     1024
group2/block20/conv1/W               [1, 1, 1024, 256]        262144
group2/block20/conv1/bn/gamma        [256]                       256
group2/block20/conv1/bn/beta         [256]                       256
group2/block20/conv2/W               [3, 3, 256, 256]         589824
group2/block20/conv2/bn/gamma        [256]                       256
group2/block20/conv2/bn/beta         [256]                       256
group2/block20/conv3/W               [1, 1, 256, 1024]        262144
group2/block20/conv3/bn/gamma        [1024]                     1024
group2/block20/conv3/bn/beta         [1024]                     1024
group2/block21/conv1/W               [1, 1, 1024, 256]        262144
group2/block21/conv1/bn/gamma        [256]                       256
group2/block21/conv1/bn/beta         [256]                       256
group2/block21/conv2/W               [3, 3, 256, 256]         589824
group2/block21/conv2/bn/gamma        [256]                       256
group2/block21/conv2/bn/beta         [256]                       256
group2/block21/conv3/W               [1, 1, 256, 1024]        262144
group2/block21/conv3/bn/gamma        [1024]                     1024
group2/block21/conv3/bn/beta         [1024]                     1024
group2/block22/conv1/W               [1, 1, 1024, 256]        262144
group2/block22/conv1/bn/gamma        [256]                       256
group2/block22/conv1/bn/beta         [256]                       256
group2/block22/conv2/W               [3, 3, 256, 256]         589824
group2/block22/conv2/bn/gamma        [256]                       256
group2/block22/conv2/bn/beta         [256]                       256
group2/block22/conv3/W               [1, 1, 256, 1024]        262144
group2/block22/conv3/bn/gamma        [1024]                     1024
group2/block22/conv3/bn/beta         [1024]                     1024
group3/block0/conv1/W                [1, 1, 1024, 512]        524288
group3/block0/conv1/bn/gamma         [512]                       512
group3/block0/conv1/bn/beta          [512]                       512
group3/block0/conv2/W                [3, 3, 512, 512]        2359296
group3/block0/conv2/bn/gamma         [512]                       512
group3/block0/conv2/bn/beta          [512]                       512
group3/block0/conv3/W                [1, 1, 512, 2048]       1048576
group3/block0/conv3/bn/gamma         [2048]                     2048
group3/block0/conv3/bn/beta          [2048]                     2048
group3/block0/convshortcut/W         [1, 1, 1024, 2048]      2097152
group3/block0/convshortcut/bn/gamma  [2048]                     2048
group3/block0/convshortcut/bn/beta   [2048]                     2048
group3/block1/conv1/W                [1, 1, 2048, 512]       1048576
group3/block1/conv1/bn/gamma         [512]                       512
group3/block1/conv1/bn/beta          [512]                       512
group3/block1/conv2/W                [3, 3, 512, 512]        2359296
group3/block1/conv2/bn/gamma         [512]                       512
group3/block1/conv2/bn/beta          [512]                       512
group3/block1/conv3/W                [1, 1, 512, 2048]       1048576
group3/block1/conv3/bn/gamma         [2048]                     2048
group3/block1/conv3/bn/beta          [2048]                     2048
group3/block2/conv1/W                [1, 1, 2048, 512]       1048576
group3/block2/conv1/bn/gamma         [512]                       512
group3/block2/conv1/bn/beta          [512]                       512
group3/block2/conv2/W                [3, 3, 512, 512]        2359296
group3/block2/conv2/bn/gamma         [512]                       512
group3/block2/conv2/bn/beta          [512]                       512
group3/block2/conv3/W                [1, 1, 512, 2048]       1048576
group3/block2/conv3/bn/gamma         [2048]                     2048
group3/block2/conv3/bn/beta          [2048]                     2048
fpn/lateral_1x1_c2/W                 [1, 1, 256, 256]          65536
fpn/lateral_1x1_c2/b                 [256]                       256
fpn/lateral_1x1_c3/W                 [1, 1, 512, 256]         131072
fpn/lateral_1x1_c3/b                 [256]                       256
fpn/lateral_1x1_c4/W                 [1, 1, 1024, 256]        262144
fpn/lateral_1x1_c4/b                 [256]                       256
fpn/lateral_1x1_c5/W                 [1, 1, 2048, 256]        524288
fpn/lateral_1x1_c5/b                 [256]                       256
fpn/posthoc_3x3_p2/W                 [3, 3, 256, 256]         589824
fpn/posthoc_3x3_p2/b                 [256]                       256
fpn/posthoc_3x3_p3/W                 [3, 3, 256, 256]         589824
fpn/posthoc_3x3_p3/b                 [256]                       256
fpn/posthoc_3x3_p4/W                 [3, 3, 256, 256]         589824
fpn/posthoc_3x3_p4/b                 [256]                       256
fpn/posthoc_3x3_p5/W                 [3, 3, 256, 256]         589824
fpn/posthoc_3x3_p5/b                 [256]                       256
rpn/conv0/W                          [3, 3, 256, 256]         589824
rpn/conv0/b                          [256]                       256
rpn/class/W                          [1, 1, 256, 3]              768
rpn/class/b                          [3]                           3
rpn/box/W                            [1, 1, 256, 12]            3072
rpn/box/b                            [12]                         12
cascade_rcnn_stage1/head/fc6/W       [12544, 1024]          12845056
cascade_rcnn_stage1/head/fc6/b       [1024]                     1024
cascade_rcnn_stage1/head/fc7/W       [1024, 1024]            1048576
cascade_rcnn_stage1/head/fc7/b       [1024]                     1024
cascade_rcnn_stage1/outputs/class/W  [1024, 2]                  2048
cascade_rcnn_stage1/outputs/class/b  [2]                           2
cascade_rcnn_stage1/outputs/box/W    [1024, 4]                  4096
cascade_rcnn_stage1/outputs/box/b    [4]                           4
cascade_rcnn_stage2/head/fc6/W       [12544, 1024]          12845056
cascade_rcnn_stage2/head/fc6/b       [1024]                     1024
cascade_rcnn_stage2/head/fc7/W       [1024, 1024]            1048576
cascade_rcnn_stage2/head/fc7/b       [1024]                     1024
cascade_rcnn_stage2/outputs/class/W  [1024, 2]                  2048
cascade_rcnn_stage2/outputs/class/b  [2]                           2
cascade_rcnn_stage2/outputs/box/W    [1024, 4]                  4096
cascade_rcnn_stage2/outputs/box/b    [4]                           4
cascade_rcnn_stage3/head/fc6/W       [12544, 1024]          12845056
cascade_rcnn_stage3/head/fc6/b       [1024]                     1024
cascade_rcnn_stage3/head/fc7/W       [1024, 1024]            1048576
cascade_rcnn_stage3/head/fc7/b       [1024]                     1024
cascade_rcnn_stage3/outputs/class/W  [1024, 2]                  2048
cascade_rcnn_stage3/outputs/class/b  [2]                           2
cascade_rcnn_stage3/outputs/box/W    [1024, 4]                  4096
cascade_rcnn_stage3/outputs/box/b    [4]                           4
maskrcnn/fcn0/W                      [3, 3, 256, 256]         589824
maskrcnn/fcn0/b                      [256]                       256
maskrcnn/fcn1/W                      [3, 3, 256, 256]         589824
maskrcnn/fcn1/b                      [256]                       256
maskrcnn/fcn2/W                      [3, 3, 256, 256]         589824
maskrcnn/fcn2/b                      [256]                       256
maskrcnn/fcn3/W                      [3, 3, 256, 256]         589824
maskrcnn/fcn3/b                      [256]                       256
maskrcnn/deconv/W                    [2, 2, 256, 256]         262144
maskrcnn/deconv/b                    [256]                       256
maskrcnn/conv/W                      [1, 1, 256, 1]              256
maskrcnn/conv/b                      [1]                           1
Number of trainable variables: 337
Number of parameters (elements): 90541602
Storage space needed for all trainable variables: 345.39MB
[0403 05:54:47 @base.py:207] Setup callbacks graph ...
[0403 05:54:47 @argtools.py:138] WRN Starting a process with 'fork' method is not safe and may consume unnecessary extra CPU memory. Use 'forkserver' or 'spawn' method (available after Py3.4) instead if you run into any issues. See https://docs.python.org/3/library/multiprocessing.html#contexts-and-start-methods on how to set them.
…
[0810 16:00:56 @registry.py:90] 'group2/block22/conv3': [1, 256, ?, ?] --> [1, 1024, ?, ?]
[0810 16:00:56 @registry.py:80] 'rpn' input: [1, 1024, ?, ?]
[0810 16:00:56 @registry.py:90]   'rpn/conv0': [1, 1024, ?, ?] --> [1, 1024, ?, ?]
[0810 16:00:56 @registry.py:90]   'rpn/class': [1, 1024, ?, ?] --> [1, 15, ?, ?]
[0810 16:00:56 @registry.py:90]   'rpn/box': [1, 1024, ?, ?] --> [1, 60, ?, ?]
[0810 16:00:56 @registry.py:93] 'rpn' output: [?, ?, 15], [?, ?, 15, 4]
[0810 16:00:56 @batch_norm.py:227] WRN [BatchNorm] Using moving_mean/moving_variance in training.
[0810 16:00:56 @registry.py:90] 'group3/block0/conv1': [?, 1024, 14, 14] --> [?, 512, 14, 14]
[0810 16:00:56 @batch_norm.py:227] WRN [BatchNorm] Using moving_mean/moving_variance in training.
[0810 16:00:56 @registry.py:90] 'group3/block0/conv2': [?, 512, 15, 15] --> [?, 512, 7, 7]
[0810 16:00:56 @batch_norm.py:227] WRN [BatchNorm] Using moving_mean/moving_variance in training.
[0810 16:00:57 @registry.py:90] 'group3/block0/conv3': [?, 512, 7, 7] --> [?, 2048, 7, 7]
[0810 16:00:57 @batch_norm.py:227] WRN [BatchNorm] Using moving_mean/moving_variance in training.
[0810 16:00:57 @registry.py:90] 'group3/block0/convshortcut': [?, 1024, 13, 13] --> [?, 2048, 7, 7]
[0810 16:00:57 @batch_norm.py:227] WRN [BatchNorm] Using moving_mean/moving_variance in training.
[0810 16:00:57 @registry.py:90] 'group3/block1/conv1': [?, 2048, 7, 7] --> [?, 512, 7, 7]
[0810 16:00:57 @batch_norm.py:227] WRN [BatchNorm] Using moving_mean/moving_variance in training.
[0810 16:00:57 @registry.py:90] 'group3/block1/conv2': [?, 512, 7, 7] --> [?, 512, 7, 7]
[0810 16:00:57 @batch_norm.py:227] WRN [BatchNorm] Using moving_mean/moving_variance in training.
[0810 16:00:57 @registry.py:90] 'group3/block1/conv3': [?, 512, 7, 7] --> [?, 2048, 7, 7]
[0810 16:00:57 @batch_norm.py:227] WRN [BatchNorm] Using moving_mean/moving_variance in training.
[0810 16:00:57 @registry.py:90] 'group3/block2/conv1': [?, 2048, 7, 7] --> [?, 512, 7, 7]
[0810 16:00:57 @batch_norm.py:227] WRN [BatchNorm] Using moving_mean/moving_variance in training.
[0810 16:00:57 @registry.py:90] 'group3/block2/conv2': [?, 512, 7, 7] --> [?, 512, 7, 7]
[0810 16:00:57 @batch_norm.py:227] WRN [BatchNorm] Using moving_mean/moving_variance in training.
[0810 16:00:57 @registry.py:90] 'group3/block2/conv3': [?, 512, 7, 7] --> [?, 2048, 7, 7]
[0810 16:00:57 @registry.py:90] 'gap': [?, 2048, 7, 7] --> [?, 2048]
[0810 16:00:57 @registry.py:80] 'fastrcnn' input: [?, 2048]
[0810 16:00:57 @registry.py:90]   'fastrcnn/class': [?, 2048] --> [?, 2]
[0810 16:00:57 @registry.py:90]   'fastrcnn/box': [?, 2048] --> [?, 8]
[0810 16:00:57 @registry.py:93] 'fastrcnn' output: [?, 2], [?, 2, 4]
[0810 16:00:57 @registry.py:80] 'maskrcnn' input: [?, 2048, 7, 7]
[0810 16:00:57 @registry.py:90]   'maskrcnn/deconv': [?, 2048, 7, 7] --> [?, 256, 14, 14]
[0810 16:00:57 @registry.py:90]   'maskrcnn/conv': [?, 256, 14, 14] --> [?, 1, 14, 14]
[0810 16:00:57 @registry.py:93] 'maskrcnn' output: [?, 1, 14, 14]
[0810 16:00:58 @regularize.py:97] regularize_cost() found 100 variables to regularize.
[0810 16:00:58 @regularize.py:21] The following tensors will be regularized: group1/block0/conv1/W:0, group1/block0/conv2/W:0, group1/block0/conv3/W:0, group1/block0/convshortcut/W:0, group1/block1/conv1/W:0, group1/block1/conv2/W
…
  ""Converting sparse IndexedSlices to a dense Tensor of unknown shape. ""
[0810 16:01:29 @collection.py:152] Size of these collections were changed in tower3: (tf.GraphKeys.MODEL_VARIABLES: 395->450)
[0810 16:01:29 @collection.py:165] These collections were modified but restored in tower3: (tf.GraphKeys.SUMMARIES: 31->32)
[0810 16:01:51 @training.py:351] 'sync_variables_from_main_tower' includes 3360 operations.
[0810 16:01:51 @model_utils.py:67] List of Trainable Variables: 
name                                 shape                 #elements
-----------------------------------  ------------------  -----------
group1/block0/conv1/W                [1, 1, 256, 128]          32768
group1/block0/conv1/bn/gamma         [128]                       128
group1/block0/conv1/bn/beta          [128]                       128
group1/block0/conv2/W                [3, 3, 128, 128]         147456
group1/block0/conv2/bn/gamma         [128]                       128
group1/block0/conv2/bn/beta          [128]                       128
group1/block0/conv3/W                [1, 1, 128, 512]          65536
group1/block0/conv3/bn/gamma         [512]                       512
group1/block0/conv3/bn/beta          [512]                       512
group1/block0/convshortcut/W         [1, 1, 256, 512]         131072
group1/block0/convshortcut/bn/gamma  [512]                       512
group1/block0/convshortcut/bn/beta   [512]                       512
group1/block1/conv1/W                [1, 1, 512, 128]          65536
group1/block1/conv1/bn/gamma         [128]                       128
group1/block1/conv1/bn/beta          [128]                       128
group1/block1/conv2/W                [3, 3, 128, 128]         147456
group1/block1/conv2/bn/gamma         [128]                       128
group1/block1/conv2/bn/beta          [128]                       128
group1/block1/conv3/W                [1, 1, 128, 512]          65536
group1/block1/conv3/bn/gamma         [512]                       512
group1/block1/conv3/bn/beta          [512]                       512
group1/block2/conv1/W                [1, 1, 512, 128]          65536
group1/block2/conv1/bn/gamma         [128]                       128
group1/block2/conv1/bn/beta          [128]                       128
group1/block2/conv2/W                [3, 3, 128, 128]         147456
group1/block2/conv2/bn/gamma         [128]                       128
group1/block2/conv2/bn/beta          [128]                       128
group1/block2/conv3/W                [1, 1, 128, 512]          65536
group1/block2/conv3/bn/gamma         [512]                       512
group1/block2/conv3/bn/beta          [512]                       512
group1/block3/conv1/W                [1, 1, 512, 128]          65536
group1/block3/conv1/bn/gamma         [128]                       128
group1/block3/conv1/bn/beta          [128]                       128
group1/block3/conv2/W                [3, 3, 128, 128]         147456
group1/block3/conv2/bn/gamma         [128]                       128
group1/block3/conv2/bn/beta          [128]                       128
group1/block3/conv3/W                [1, 1, 128, 512]          65536
group1/block3/conv3/bn/gamma         [512]                       512
group1/block3/conv3/bn/beta          [512]                       512
group2/block0/conv1/W                [1, 1, 512, 256]         131072
group2/block0/conv1/bn/gamma         [256]                       256
group2/block0/conv1/bn/beta          [256]                       256
group2/block0/conv2/W                [3, 3, 256, 256]         589824
group2/block0/conv2/bn/gamma         [256]                       256
group2/block0/conv2/bn/beta          [256]                       256
group2/block0/conv3/W                [1, 1, 256, 1024]        262144
group2/block0/conv3/bn/gamma         [1024]                     1024
group2/block0/conv3/bn/beta          [1024]                     1024
group2/block0/convshortcut/W         [1, 1, 512, 1024]        524288
group2/block0/convshortcut/bn/gamma  [1024]                     1024
group2/block0/convshortcut/bn/beta   [1024]                     1024
group2/block1/conv1/W                [1, 1, 1024, 256]        262144
group2/block1/conv1/bn/gamma         [256]                       256
group2/block1/conv1/bn/beta          [256]                       256
group2/block1/conv2/W                [3, 3, 256, 256]         589824
group2/block1/conv2/bn/gamma         [256]                       256
group2/block1/conv2/bn/beta          [256]                       256
group2/block1/conv3/W                [1, 1, 256, 1024]        262144
group2/block1/conv3/bn/gamma         [1024]                     1024
group2/block1/conv3/bn/beta          [1024]                     1024
group2/block2/conv1/W                [1, 1, 1024, 256]        262144
group2/block2/conv1/bn/gamma         [256]                       256
group2/block2/conv1/bn/beta          [256]                       256
group2/block2/conv2/W                [3, 3, 256, 256]         589824
group2/block2/conv2/bn/gamma         [256]                       256
group2/block2/conv2/bn/beta          [256]                       256
group2/block2/conv3/W                [1, 1, 256, 1024]        262144
group2/block2/conv3/bn/gamma         [1024]                     1024
group2/block2/conv3/bn/beta          [1024]                     1024
group2/block3/conv1/W                [1, 1, 1024, 256]        262144
group2/block3/conv1/bn/gamma         [256]                       256
group2/block3/conv1/bn/beta          [256]                       256
group2/block3/conv2/W                [3, 3, 256, 256]         589824
group2/block3/conv2/bn/gamma         [256]                       256
group2/block3/conv2/bn/beta          [256]                       256
group2/block3/conv3/W                [1, 1, 256, 1024]        262144
group2/block3/conv3/bn/gamma         [1024]                     1024
group2/block3/conv3/bn/beta          [1024]                     1024
group2/block4/conv1/W                [1, 1, 1024, 256]        262144
group2/block4/conv1/bn/gamma         [256]                       256
group2/block4/conv1/bn/beta          [256]                       256
group2/block4/conv2/W                [3, 3, 256, 256]         589824
group2/block4/conv2/bn/gamma         [256]                       256
group2/block4/conv2/bn/beta          [256]                       256
group2/block4/conv3/W                [1, 1, 256, 1024]        262144
group2/block4/conv3/bn/gamma         [1024]                     1024
group2/block4/conv3/bn/beta          [1024]                     1024
group2/block5/conv1/W                [1, 1, 1024, 256]        262144
group2/block5/conv1/bn/gamma         [256]                       256
group2/block5/conv1/bn/beta          [256]                       256
group2/block5/conv2/W                [3, 3, 256, 256]         589824
group2/block5/conv2/bn/gamma         [256]                       256
group2/block5/conv2/bn/beta          [256]                       256
group2/block5/conv3/W                [1, 1, 256, 1024]        262144
group2/block5/conv3/bn/gamma         [1024]                     1024
group2/block5/conv3/bn/beta          [1024]                     1024
group2/block6/conv1/W                [1, 1, 1024, 256]        262144
group2/block6/conv1/bn/gamma         [256]                       256
group2/block6/conv1/bn/beta          [256]                       256
group2/block6/conv2/W                [3, 3, 256, 256]         589824
group2/block6/conv2/bn/gamma         [256]                       256
group2/block6/conv2/bn/beta          [256]                       256
group2/block6/conv3/W                [1, 1, 256, 1024]        262144
group2/block6/conv3/bn/gamma         [1024]                     1024
group2/block6/conv3/bn/beta          [1024]                     1024
group2/block7/conv1/W                [1, 1, 1024, 256]        262144
group2/block7/conv1/bn/gamma         [256]                       256
group2/block7/conv1/bn/beta          [256]                       256
group2/block7/conv2/W                [3, 3, 256, 256]         589824
group2/block7/conv2/bn/gamma         [256]                       256
group2/block7/conv2/bn/beta          [256]                       256
group2/block7/conv3/W                [1, 1, 256, 1024]        262144
group2/block7/conv3/bn/gamma         [1024]                     1024
group2/block7/conv3/bn/beta          [1024]                     1024
group2/block8/conv1/W                [1, 1, 1024, 256]        262144
group2/block8/conv1/bn/gamma         [256]                       256
group2/block8/conv1/bn/beta          [256]                       256
group2/block8/conv2/W                [3, 3, 256, 256]         589824
group2/block8/conv2/bn/gamma         [256]                       256
group2/block8/conv2/bn/beta          [256]                       256
group2/block8/conv3/W                [1, 1, 256, 1024]        262144
group2/block8/conv3/bn/gamma         [1024]                     1024
group2/block8/conv3/bn/beta          [1024]                     1024
group2/block9/conv1/W                [1, 1, 1024, 256]        262144
group2/block9/conv1/bn/gamma         [256]                       256
group2/block9/conv1/bn/beta          [256]                       256
group2/block9/conv2/W                [3, 3, 256, 256]         589824
group2/block9/conv2/bn/gamma         [256]                       256
group2/block9/conv2/bn/beta          [256]                       256
group2/block9/conv3/W                [1, 1, 256, 1024]        262144
group2/block9/conv3/bn/gamma         [1024]                     1024
group2/block9/conv3/bn/beta          [1024]                     1024
group2/block10/conv1/W               [1, 1, 1024, 256]        262144
group2/block10/conv1/bn/gamma        [256]                       256
group2/block10/conv1/bn/beta         [256]                       256
group2/block10/conv2/W               [3, 3, 256, 256]         589824
group2/block10/conv2/bn/gamma        [256]                       256
group2/block10/conv2/bn/beta         [256]                       256
group2/block10/conv3/W               [1, 1, 256, 1024]        262144
group2/block10/conv3/bn/gamma        [1024]                     1024
group2/block10/conv3/bn/beta         [1024]                     1024
group2/block11/conv1/W               [1, 1, 1024, 256]        262144
group2/block11/conv1/bn/gamma        [256]                       256
group2/block11/conv1/bn/beta         [256]                       256
group2/block11/conv2/W               [3, 3, 256, 256]         589824
group2/block11/conv2/bn/gamma        [256]                       256
group2/block11/conv2/bn/beta         [256]                       256
group2/block11/conv3/W               [1, 1, 256, 1024]        262144
group2/block11/conv3/bn/gamma        [1024]                     1024
group2/block11/conv3/bn/beta         [1024]                     1024
group2/block12/conv1/W               [1, 1, 1024, 256]        262144
group2/block12/conv1/bn/gamma        [256]                       256
group2/block12/conv1/bn/beta         [256]                       256
group2/block12/conv2/W               [3, 3, 256, 256]         589824
group2/block12/conv2/bn/gamma        [256]                       256
group2/block12/conv2/bn/beta         [256]                       256
group2/block12/conv3/W               [1, 1, 256, 1024]        262144
group2/block12/conv3/bn/gamma        [1024]                     1024
group2/block12/conv3/bn/beta         [1024]                     1024
group2/block13/conv1/W               [1, 1, 1024, 256]        262144
group2/block13/conv1/bn/gamma        [256]                       256
group2/block13/conv1/bn/beta         [256]                       256
group2/block13/conv2/W               [3, 3, 256, 256]         589824
group2/block13/conv2/bn/gamma        [256]                       256
group2/block13/conv2/bn/beta         [256]                       256
group2/block13/conv3/W               [1, 1, 256, 1024]        262144
group2/block13/conv3/bn/gamma        [1024]                     1024
group2/block13/conv3/bn/beta         [1024]                     1024
group2/block14/conv1/W               [1, 1, 1024, 256]        262144
group2/block14/conv1/bn/gamma        [256]                       256
group2/block14/conv1/bn/beta         [256]                       256
group2/block14/conv2/W               [3, 3, 256, 256]         589824
group2/block14/conv2/bn/gamma        [256]                       256
group2/block14/conv2/bn/beta         [256]                       256
group2/block14/conv3/W               [1, 1, 256, 1024]        262144
group2/block14/conv3/bn/gamma        [1024]                     1024
group2/block14/conv3/bn/beta         [1024]                     1024
group2/block15/conv1/W               [1, 1, 1024, 256]        262144
group2/block15/conv1/bn/gamma        [256]                       256
group2/block15/conv1/bn/beta         [256]                       256
group2/block15/conv2/W               [3, 3, 256, 256]         589824
group2/block15/conv2/bn/gamma        [256]                       256
group2/block15/conv2/bn/beta         [256]                       256
group2/block15/conv3/W               [1, 1, 256, 1024]        262144
group2/block15/conv3/bn/gamma        [1024]                     1024
group2/block15/conv3/bn/beta         [1024]                     1024
group2/block16/conv1/W               [1, 1, 1024, 256]        262144
group2/block16/conv1/bn/gamma        [256]                       256
group2/block16/conv1/bn/beta         [256]                       256
group2/block16/conv2/W               [3, 3, 256, 256]         589824
group2/block16/conv2/bn/gamma        [256]                       256
group2/block16/conv2/bn/beta         [256]                       256
group2/block16/conv3/W               [1, 1, 256, 1024]        262144
group2/block16/conv3/bn/gamma        [1024]                     1024
group2/block16/conv3/bn/beta         [1024]                     1024
group2/block17/conv1/W               [1, 1, 1024, 256]        262144
group2/block17/conv1/bn/gamma        [256]                       256
group2/block17/conv1/bn/beta         [256]                       256
group2/block17/conv2/W               [3, 3, 256, 256]         589824
group2/block17/conv2/bn/gamma        [256]                       256
group2/block17/conv2/bn/beta         [256]                       256
group2/block17/conv3/W               [1, 1, 256, 1024]        262144
group2/block17/conv3/bn/gamma        [1024]                     1024
group2/block17/conv3/bn/beta         [1024]                     1024
group2/block18/conv1/W               [1, 1, 1024, 256]        262144
group2/block18/conv1/bn/gamma        [256]                       256
group2/block18/conv1/bn/beta         [256]                       256
group2/block18/conv2/W               [3, 3, 256, 256]         589824
group2/block18/conv2/bn/gamma        [256]                       256
group2/block18/conv2/bn/beta         [256]                       256
group2/block18/conv3/W               [1, 1, 256, 1024]        262144
group2/block18/conv3/bn/gamma        [1024]                     1024
group2/block18/conv3/bn/beta         [1024]                     1024
group2/block19/conv1/W               [1, 1, 1024, 256]        262144
group2/block19/conv1/bn/gamma        [256]                       256
group2/block19/conv1/bn/beta         [256]                       256
group2/block19/conv2/W               [3, 3, 256, 256]         589824
group2/block19/conv2/bn/gamma        [256]                       256
group2/block19/conv2/bn/beta         [256]                       256
group2/block19/conv3/W               [1, 1, 256, 1024]        262144
group2/block19/conv3/bn/gamma        [1024]                     1024
group2/block19/conv3/bn/beta         [1024]                     1024
group2/block20/conv1/W               [1, 1, 1024, 256]        262144
group2/block20/conv1/bn/gamma        [256]                       256
group2/block20/conv1/bn/beta         [256]                       256
group2/block20/conv2/W               [3, 3, 256, 256]         589824
group2/block20/conv2/bn/gamma        [256]                       256
group2/block20/conv2/bn/beta         [256]                       256
group2/block20/conv3/W               [1, 1, 256, 1024]        262144
group2/block20/conv3/bn/gamma        [1024]                     1024
group2/block20/conv3/bn/beta         [1024]                     1024
group2/block21/conv1/W               [1, 1, 1024, 256]        262144
group2/block21/conv1/bn/gamma        [256]                       256
group2/block21/conv1/bn/beta         [256]                       256
group2/block21/conv2/W               [3, 3, 256, 256]         589824
group2/block21/conv2/bn/gamma        [256]                       256
group2/block21/conv2/bn/beta         [256]                       256
group2/block21/conv3/W               [1, 1, 256, 1024]        262144
group2/block21/conv3/bn/gamma        [1024]                     1024
group2/block21/conv3/bn/beta         [1024]                     1024
group2/block22/conv1/W               [1, 1, 1024, 256]        262144
group2/block22/conv1/bn/gamma        [256]                       256
group2/block22/conv1/bn/beta         [256]                       256
group2/block22/conv2/W               [3, 3, 256, 256]         589824
group2/block22/conv2/bn/gamma        [256]                       256
group2/block22/conv2/bn/beta         [256]                       256
group2/block22/conv3/W               [1, 1, 256, 1024]        262144
group2/block22/conv3/bn/gamma        [1024]                     1024
group2/block22/conv3/bn/beta         [1024]                     1024
rpn/conv0/W                          [3, 3, 1024, 1024]      9437184
rpn/conv0/b                          [1024]                     1024
rpn/class/W                          [1, 1, 1024, 15]          15360
rpn/class/b                          [15]                         15
rpn/box/W                            [1, 1, 1024, 60]          61440
rpn/box/b                            [60]                         60
group3/block0/conv1/W                [1, 1, 1024, 512]        524288
group3/block0/conv1/bn/gamma         [512]                       512
group3/block0/conv1/bn/beta          [512]                       512
group3/block0/conv2/W                [3, 3, 512, 512]        2359296
group3/block0/conv2/bn/gamma         [512]                       512
group3/block0/conv2/bn/beta          [512]                       512
group3/block0/conv3/W                [1, 1, 512, 2048]       1048576
group3/block0/conv3/bn/gamma         [2048]                     2048
group3/block0/conv3/bn/beta          [2048]                     2048
group3/block0/convshortcut/W         [1, 1, 1024, 2048]      2097152
group3/block0/convshortcut/bn/gamma  [2048]                     2048
group3/block0/convshortcut/bn/beta   [2048]                     2048
group3/block1/conv1/W                [1, 1, 2048, 512]       1048576
group3/block1/conv1/bn/gamma         [512]                       512
group3/block1/conv1/bn/beta          [512]                       512
group3/block1/conv2/W                [3, 3, 512, 512]        2359296
group3/block1/conv2/bn/gamma         [512]                       512
group3/block1/conv2/bn/beta          [512]                       512
group3/block1/conv3/W                [1, 1, 512, 2048]       1048576
group3/block1/conv3/bn/gamma         [2048]                     2048
group3/block1/conv3/bn/beta          [2048]                     2048
group3/block2/conv1/W                [1, 1, 2048, 512]       1048576
group3/block2/conv1/bn/gamma         [512]                       512
group3/block2/conv1/bn/beta          [512]                       512
group3/block2/conv2/W                [3, 3, 512, 512]        2359296
group3/block2/conv2/bn/gamma         [512]                       512
group3/block2/conv2/bn/beta          [512]                       512
group3/block2/conv3/W                [1, 1, 512, 2048]       1048576
group3/block2/conv3/bn/gamma         [2048]                     2048
group3/block2/conv3/bn/beta          [2048]                     2048
fastrcnn/class/W                     [2048, 2]                  4096
fastrcnn/class/b                     [2]                           2
fastrcnn/box/W                       [2048, 8]                 16384
fastrcnn/box/b                       [8]                           8
maskrcnn/deconv/W                    [2, 2, 256, 2048]       2097152
maskrcnn/deconv/b                    [256]                       256
maskrcnn/conv/W                      [1, 1, 256, 1]              256
maskrcnn/conv/b                      [1]                           1
Number of trainable variables: 293
Number of parameters (elements): 53908054
Storage space needed for all trainable variables: 205.64MB
[0810 16:01:51 @base.py:209] Setup callbacks graph ...
[0810 16:01:54 @prof.py:271] [HostMemoryTracker] Free RAM in setup_graph() is 208.84 GB.
[0810 16:01:54 @tower.py:140] Building graph for predict tower 'tower-pred-0' on device /gpu:0 ...
…
/home/bigdata/anaconda3/envs/tensorflow/lib/python3.6/site-packages/tensorflow/python/ops/gradients_util.py:93: UserWarning: Converting sparse IndexedSlices to a dense Tensor of unknown shape. This may consume a large amount of memory.
  ""Converting sparse IndexedSlices to a dense Tensor of unknown shape. ""
[0808 20:58:21 @collection.py:165] These collections were modified but restored in tower3: (tf.GraphKeys.SUMMARIES: 31->32)
[0808 20:58:46 @training.py:351] 'sync_variables_from_main_tower' includes 3558 operations.
[0808 20:58:46 @model_utils.py:67] List of Trainable Variables: 
name                                 shape                 #elements
-----------------------------------  ------------------  -----------
conv0/W                              [7, 7, 3, 64]              9408
conv0/bn/beta                        [64]                         64
conv0/bn/gamma                       [64]                         64
group0/block0/conv1/W                [1, 1, 64, 64]             4096
group0/block0/conv1/bn/beta          [64]                         64
group0/block0/conv1/bn/gamma         [64]                         64
group0/block0/conv2/W                [3, 3, 64, 64]            36864
group0/block0/conv2/bn/beta          [64]                         64
group0/block0/conv2/bn/gamma         [64]                         64
group0/block0/conv3/W                [1, 1, 64, 256]           16384
group0/block0/conv3/bn/beta          [256]                       256
group0/block0/conv3/bn/gamma         [256]                       256
group0/block0/convshortcut/W         [1, 1, 64, 256]           16384
group0/block0/convshortcut/bn/beta   [256]                       256
group0/block0/convshortcut/bn/gamma  [256]                       256
group0/block1/conv1/W                [1, 1, 256, 64]           16384
group0/block1/conv1/bn/beta          [64]                         64
group0/block1/conv1/bn/gamma         [64]                         64
group0/block1/conv2/W                [3, 3, 64, 64]            36864
group0/block1/conv2/bn/beta          [64]                         64
group0/block1/conv2/bn/gamma         [64]                         64
group0/block1/conv3/W                [1, 1, 64, 256]           16384
group0/block1/conv3/bn/beta          [256]                       256
group0/block1/conv3/bn/gamma         [256]                       256
group0/block2/conv1/W                [1, 1, 256, 64]           16384
group0/block2/conv1/bn/beta          [64]                         64
group0/block2/conv1/bn/gamma         [64]                         64
group0/block2/conv2/W                [3, 3, 64, 64]            36864
group0/block2/conv2/bn/beta          [64]                         64
group0/block2/conv2/bn/gamma         [64]                         64
group0/block2/conv3/W                [1, 1, 64, 256]           16384
group0/block2/conv3/bn/beta          [256]                       256
group0/block2/conv3/bn/gamma         [256]                       256
group1/block0/conv1/W                [1, 1, 256, 128]          32768
group1/block0/conv1/bn/beta          [128]                       128
group1/block0/conv1/bn/gamma         [128]                       128
group1/block0/conv2/W                [3, 3, 128, 128]         147456
group1/block0/conv2/bn/beta          [128]                       128
group1/block0/conv2/bn/gamma         [128]                       128
group1/block0/conv3/W                [1, 1, 128, 512]          65536
group1/block0/conv3/bn/beta          [512]                       512
group1/block0/conv3/bn/gamma         [512]                       512
group1/block0/convshortcut/W         [1, 1, 256, 512]         131072
group1/block0/convshortcut/bn/beta   [512]                       512
group1/block0/convshortcut/bn/gamma  [512]                       512
group1/block1/conv1/W                [1, 1, 512, 128]          65536
group1/block1/conv1/bn/beta          [128]                       128
group1/block1/conv1/bn/gamma         [128]                       128
group1/block1/conv2/W                [3, 3, 128, 128]         147456
group1/block1/conv2/bn/beta          [128]                       128
group1/block1/conv2/bn/gamma         [128]                       128
group1/block1/conv3/W                [1, 1, 128, 512]          65536
group1/block1/conv3/bn/beta          [512]                       512
group1/block1/conv3/bn/gamma         [512]                       512
group1/block2/conv1/W                [1, 1, 512, 128]          65536
group1/block2/conv1/bn/beta          [128]                       128
group1/block2/conv1/bn/gamma         [128]                       128
group1/block2/conv2/W                [3, 3, 128, 128]         147456
group1/block2/conv2/bn/beta          [128]                       128
group1/block2/conv2/bn/gamma         [128]                       128
group1/block2/conv3/W                [1, 1, 128, 512]          65536
group1/block2/conv3/bn/beta          [512]                       512
group1/block2/conv3/bn/gamma         [512]                       512
group1/block3/conv1/W                [1, 1, 512, 128]          65536
group1/block3/conv1/bn/beta          [128]                       128
group1/block3/conv1/bn/gamma         [128]                       128
group1/block3/conv2/W                [3, 3, 128, 128]         147456
group1/block3/conv2/bn/beta          [128]                       128
group1/block3/conv2/bn/gamma         [128]                       128
group1/block3/conv3/W                [1, 1, 128, 512]          65536
group1/block3/conv3/bn/beta          [512]                       512
group1/block3/conv3/bn/gamma         [512]                       512
group2/block0/conv1/W                [1, 1, 512, 256]         131072
group2/block0/conv1/bn/beta          [256]                       256
group2/block0/conv1/bn/gamma         [256]                       256
group2/block0/conv2/W                [3, 3, 256, 256]         589824
group2/block0/conv2/bn/beta          [256]                       256
group2/block0/conv2/bn/gamma         [256]                       256
group2/block0/conv3/W                [1, 1, 256, 1024]        262144
group2/block0/conv3/bn/beta          [1024]                     1024
group2/block0/conv3/bn/gamma         [1024]                     1024
group2/block0/convshortcut/W         [1, 1, 512, 1024]        524288
group2/block0/convshortcut/bn/beta   [1024]                     1024
group2/block0/convshortcut/bn/gamma  [1024]                     1024
group2/block1/conv1/W                [1, 1, 1024, 256]        262144
group2/block1/conv1/bn/beta          [256]                       256
group2/block1/conv1/bn/gamma         [256]                       256
group2/block1/conv2/W                [3, 3, 256, 256]         589824
group2/block1/conv2/bn/beta          [256]                       256
group2/block1/conv2/bn/gamma         [256]                       256
group2/block1/conv3/W                [1, 1, 256, 1024]        262144
group2/block1/conv3/bn/beta          [1024]                     1024
group2/block1/conv3/bn/gamma         [1024]                     1024
group2/block2/conv1/W                [1, 1, 1024, 256]        262144
group2/block2/conv1/bn/beta          [256]                       256
group2/block2/conv1/bn/gamma         [256]                       256
group2/block2/conv2/W                [3, 3, 256, 256]         589824
group2/block2/conv2/bn/beta          [256]                       256
group2/block2/conv2/bn/gamma         [256]                       256
group2/block2/conv3/W                [1, 1, 256, 1024]        262144
group2/block2/conv3/bn/beta          [1024]                     1024
group2/block2/conv3/bn/gamma         [1024]                     1024
group2/block3/conv1/W                [1, 1, 1024, 256]        262144
group2/block3/conv1/bn/beta          [256]                       256
group2/block3/conv1/bn/gamma         [256]                       256
group2/block3/conv2/W                [3, 3, 256, 256]         589824
group2/block3/conv2/bn/beta          [256]                       256
group2/block3/conv2/bn/gamma         [256]                       256
group2/block3/conv3/W                [1, 1, 256, 1024]        262144
group2/block3/conv3/bn/beta          [1024]                     1024
group2/block3/conv3/bn/gamma         [1024]                     1024
group2/block4/conv1/W                [1, 1, 1024, 256]        262144
group2/block4/conv1/bn/beta          [256]                       256
group2/block4/conv1/bn/gamma         [256]                       256
group2/block4/conv2/W                [3, 3, 256, 256]         589824
group2/block4/conv2/bn/beta          [256]                       256
group2/block4/conv2/bn/gamma         [256]                       256
group2/block4/conv3/W                [1, 1, 256, 1024]        262144
group2/block4/conv3/bn/beta          [1024]                     1024
group2/block4/conv3/bn/gamma         [1024]                     1024
group2/block5/conv1/W                [1, 1, 1024, 256]        262144
group2/block5/conv1/bn/beta          [256]                       256
group2/block5/conv1/bn/gamma         [256]                       256
group2/block5/conv2/W                [3, 3, 256, 256]         589824
group2/block5/conv2/bn/beta          [256]                       256
group2/block5/conv2/bn/gamma         [256]                       256
group2/block5/conv3/W                [1, 1, 256, 1024]        262144
group2/block5/conv3/bn/beta          [1024]                     1024
group2/block5/conv3/bn/gamma         [1024]                     1024
group2/block6/conv1/W                [1, 1, 1024, 256]        262144
group2/block6/conv1/bn/beta          [256]                       256
group2/block6/conv1/bn/gamma         [256]                       256
group2/block6/conv2/W                [3, 3, 256, 256]         589824
group2/block6/conv2/bn/beta          [256]                       256
group2/block6/conv2/bn/gamma         [256]                       256
group2/block6/conv3/W                [1, 1, 256, 1024]        262144
group2/block6/conv3/bn/beta          [1024]                     1024
group2/block6/conv3/bn/gamma         [1024]                     1024
group2/block7/conv1/W                [1, 1, 1024, 256]        262144
group2/block7/conv1/bn/beta          [256]                       256
group2/block7/conv1/bn/gamma         [256]                       256
group2/block7/conv2/W                [3, 3, 256, 256]         589824
group2/block7/conv2/bn/beta          [256]                       256
group2/block7/conv2/bn/gamma         [256]                       256
group2/block7/conv3/W                [1, 1, 256, 1024]        262144
group2/block7/conv3/bn/beta          [1024]                     1024
group2/block7/conv3/bn/gamma         [1024]                     1024
group2/block8/conv1/W                [1, 1, 1024, 256]        262144
group2/block8/conv1/bn/beta          [256]                       256
group2/block8/conv1/bn/gamma         [256]                       256
group2/block8/conv2/W                [3, 3, 256, 256]         589824
group2/block8/conv2/bn/beta          [256]                       256
group2/block8/conv2/bn/gamma         [256]                       256
group2/block8/conv3/W                [1, 1, 256, 1024]        262144
group2/block8/conv3/bn/beta          [1024]                     1024
group2/block8/conv3/bn/gamma         [1024]                     1024
group2/block9/conv1/W                [1, 1, 1024, 256]        262144
group2/block9/conv1/bn/beta          [256]                       256
group2/block9/conv1/bn/gamma         [256]                       256
group2/block9/conv2/W                [3, 3, 256, 256]         589824
group2/block9/conv2/bn/beta          [256]                       256
group2/block9/conv2/bn/gamma         [256]                       256
group2/block9/conv3/W                [1, 1, 256, 1024]        262144
group2/block9/conv3/bn/beta          [1024]                     1024
group2/block9/conv3/bn/gamma         [1024]                     1024
group2/block10/conv1/W               [1, 1, 1024, 256]        262144
group2/block10/conv1/bn/beta         [256]                       256
group2/block10/conv1/bn/gamma        [256]                       256
group2/block10/conv2/W               [3, 3, 256, 256]         589824
group2/block10/conv2/bn/beta         [256]                       256
group2/block10/conv2/bn/gamma        [256]                       256
group2/block10/conv3/W               [1, 1, 256, 1024]        262144
group2/block10/conv3/bn/beta         [1024]                     1024
group2/block10/conv3/bn/gamma        [1024]                     1024
group2/block11/conv1/W               [1, 1, 1024, 256]        262144
group2/block11/conv1/bn/beta         [256]                       256
group2/block11/conv1/bn/gamma        [256]                       256
group2/block11/conv2/W               [3, 3, 256, 256]         589824
group2/block11/conv2/bn/beta         [256]                       256
group2/block11/conv2/bn/gamma        [256]                       256
group2/block11/conv3/W               [1, 1, 256, 1024]        262144
group2/block11/conv3/bn/beta         [1024]                     1024
group2/block11/conv3/bn/gamma        [1024]                     1024
group2/block12/conv1/W               [1, 1, 1024, 256]        262144
group2/block12/conv1/bn/beta         [256]                       256
group2/block12/conv1/bn/gamma        [256]                       256
group2/block12/conv2/W               [3, 3, 256, 256]         589824
group2/block12/conv2/bn/beta         [256]                       256
group2/block12/conv2/bn/gamma        [256]                       256
group2/block12/conv3/W               [1, 1, 256, 1024]        262144
group2/block12/conv3/bn/beta         [1024]                     1024
group2/block12/conv3/bn/gamma        [1024]                     1024
group2/block13/conv1/W               [1, 1, 1024, 256]        262144
group2/block13/conv1/bn/beta         [256]                       256
group2/block13/conv1/bn/gamma        [256]                       256
group2/block13/conv2/W               [3, 3, 256, 256]         589824
group2/block13/conv2/bn/beta         [256]                       256
group2/block13/conv2/bn/gamma        [256]                       256
group2/block13/conv3/W               [1, 1, 256, 1024]        262144
group2/block13/conv3/bn/beta         [1024]                     1024
group2/block13/conv3/bn/gamma        [1024]                     1024
group2/block14/conv1/W               [1, 1, 1024, 256]        262144
group2/block14/conv1/bn/beta         [256]                       256
group2/block14/conv1/bn/gamma        [256]                       256
group2/block14/conv2/W               [3, 3, 256, 256]         589824
group2/block14/conv2/bn/beta         [256]                       256
group2/block14/conv2/bn/gamma        [256]                       256
group2/block14/conv3/W               [1, 1, 256, 1024]        262144
group2/block14/conv3/bn/beta         [1024]                     1024
group2/block14/conv3/bn/gamma        [1024]                     1024
group2/block15/conv1/W               [1, 1, 1024, 256]        262144
group2/block15/conv1/bn/beta         [256]                       256
group2/block15/conv1/bn/gamma        [256]                       256
group2/block15/conv2/W               [3, 3, 256, 256]         589824
group2/block15/conv2/bn/beta         [256]                       256
group2/block15/conv2/bn/gamma        [256]                       256
group2/block15/conv3/W               [1, 1, 256, 1024]        262144
group2/block15/conv3/bn/beta         [1024]                     1024
group2/block15/conv3/bn/gamma        [1024]                     1024
group2/block16/conv1/W               [1, 1, 1024, 256]        262144
group2/block16/conv1/bn/beta         [256]                       256
group2/block16/conv1/bn/gamma        [256]                       256
group2/block16/conv2/W               [3, 3, 256, 256]         589824
group2/block16/conv2/bn/beta         [256]                       256
group2/block16/conv2/bn/gamma        [256]                       256
group2/block16/conv3/W               [1, 1, 256, 1024]        262144
group2/block16/conv3/bn/beta         [1024]                     1024
group2/block16/conv3/bn/gamma        [1024]                     1024
group2/block17/conv1/W               [1, 1, 1024, 256]        262144
group2/block17/conv1/bn/beta         [256]                       256
group2/block17/conv1/bn/gamma        [256]                       256
group2/block17/conv2/W               [3, 3, 256, 256]         589824
group2/block17/conv2/bn/beta         [256]                       256
group2/block17/conv2/bn/gamma        [256]                       256
group2/block17/conv3/W               [1, 1, 256, 1024]        262144
group2/block17/conv3/bn/beta         [1024]                     1024
group2/block17/conv3/bn/gamma        [1024]                     1024
group2/block18/conv1/W               [1, 1, 1024, 256]        262144
group2/block18/conv1/bn/beta         [256]                       256
group2/block18/conv1/bn/gamma        [256]                       256
group2/block18/conv2/W               [3, 3, 256, 256]         589824
group2/block18/conv2/bn/beta         [256]                       256
group2/block18/conv2/bn/gamma        [256]                       256
group2/block18/conv3/W               [1, 1, 256, 1024]        262144
group2/block18/conv3/bn/beta         [1024]                     1024
group2/block18/conv3/bn/gamma        [1024]                     1024
group2/block19/conv1/W               [1, 1, 1024, 256]        262144
group2/block19/conv1/bn/beta         [256]                       256
group2/block19/conv1/bn/gamma        [256]                       256
group2/block19/conv2/W               [3, 3, 256, 256]         589824
group2/block19/conv2/bn/beta         [256]                       256
group2/block19/conv2/bn/gamma        [256]                       256
group2/block19/conv3/W               [1, 1, 256, 1024]        262144
group2/block19/conv3/bn/beta         [1024]                     1024
group2/block19/conv3/bn/gamma        [1024]                     1024
group2/block20/conv1/W               [1, 1, 1024, 256]        262144
group2/block20/conv1/bn/beta         [256]                       256
group2/block20/conv1/bn/gamma        [256]                       256
group2/block20/conv2/W               [3, 3, 256, 256]         589824
group2/block20/conv2/bn/beta         [256]                       256
group2/block20/conv2/bn/gamma        [256]                       256
group2/block20/conv3/W               [1, 1, 256, 1024]        262144
group2/block20/conv3/bn/beta         [1024]                     1024
group2/block20/conv3/bn/gamma        [1024]                     1024
group2/block21/conv1/W               [1, 1, 1024, 256]        262144
group2/block21/conv1/bn/beta         [256]                       256
group2/block21/conv1/bn/gamma        [256]                       256
group2/block21/conv2/W               [3, 3, 256, 256]         589824
group2/block21/conv2/bn/beta         [256]                       256
group2/block21/conv2/bn/gamma        [256]                       256
group2/block21/conv3/W               [1, 1, 256, 1024]        262144
group2/block21/conv3/bn/beta         [1024]                     1024
group2/block21/conv3/bn/gamma        [1024]                     1024
group2/block22/conv1/W               [1, 1, 1024, 256]        262144
group2/block22/conv1/bn/beta         [256]                       256
group2/block22/conv1/bn/gamma        [256]                       256
group2/block22/conv2/W               [3, 3, 256, 256]         589824
group2/block22/conv2/bn/beta         [256]                       256
group2/block22/conv2/bn/gamma        [256]                       256
group2/block22/conv3/W               [1, 1, 256, 1024]        262144
group2/block22/conv3/bn/beta         [1024]                     1024
group2/block22/conv3/bn/gamma        [1024]                     1024
rpn/conv0/W                          [3, 3, 1024, 1024]      9437184
rpn/conv0/b                          [1024]                     1024
rpn/class/W                          [1, 1, 1024, 15]          15360
rpn/class/b                          [15]                         15
rpn/box/W                            [1, 1, 1024, 60]          61440
rpn/box/b                            [60]                         60
group3/block0/conv1/W                [1, 1, 1024, 512]        524288
group3/block0/conv1/bn/beta          [512]                       512
group3/block0/conv1/bn/gamma         [512]                       512
group3/block0/conv2/W                [3, 3, 512, 512]        2359296
group3/block0/conv2/bn/beta          [512]                       512
group3/block0/conv2/bn/gamma         [512]                       512
group3/block0/conv3/W                [1, 1, 512, 2048]       1048576
group3/block0/conv3/bn/beta          [2048]                     2048
group3/block0/conv3/bn/gamma         [2048]                     2048
group3/block0/convshortcut/W         [1, 1, 1024, 2048]      2097152
group3/block0/convshortcut/bn/beta   [2048]                     2048
group3/block0/convshortcut/bn/gamma  [2048]                     2048
group3/block1/conv1/W                [1, 1, 2048, 512]       1048576
group3/block1/conv1/bn/beta          [512]                       512
group3/block1/conv1/bn/gamma         [512]                       512
group3/block1/conv2/W                [3, 3, 512, 512]        2359296
group3/block1/conv2/bn/beta          [512]                       512
group3/block1/conv2/bn/gamma         [512]                       512
group3/block1/conv3/W                [1, 1, 512, 2048]       1048576
group3/block1/conv3/bn/beta          [2048]                     2048
group3/block1/conv3/bn/gamma         [2048]                     2048
group3/block2/conv1/W                [1, 1, 2048, 512]       1048576
group3/block2/conv1/bn/beta          [512]                       512
group3/block2/conv1/bn/gamma         [512]                       512
group3/block2/conv2/W                [3, 3, 512, 512]        2359296
group3/block2/conv2/bn/beta          [512]                       512
group3/block2/conv2/bn/gamma         [512]                       512
group3/block2/conv3/W                [1, 1, 512, 2048]       1048576
group3/block2/conv3/bn/beta          [2048]                     2048
group3/block2/conv3/bn/gamma         [2048]                     2048
fastrcnn/class/W                     [2048, 2]                  4096
fastrcnn/class/b                     [2]                           2
fastrcnn/box/W                       [2048, 8]                 16384
fastrcnn/box/b                       [8]                           8
maskrcnn/deconv/W                    [2, 2, 256, 2048]       2097152
maskrcnn/deconv/b                    [256]                       256
maskrcnn/conv/W                      [1, 1, 256, 1]              256
maskrcnn/conv/b                      [1]                           1
Number of trainable variables: 326
Number of parameters (elements): 54133398
Storage space needed for all trainable variables: 206.50MB
[0808 20:58:46 @base.py:209] Setup callbacks graph ...
[0808 20:58:50 @prof.py:271] [HostMemoryTracker] Free RAM in setup_graph() is 208.71 GB.
[0808 20:58:50 @tower.py:140] Building graph for predict tower 'tower-pred-0' on device /gpu:0 ...
…
[0722 08:15:49 @regularize.py:97] regularize_cost() found 63 variables to regularize.
[0722 08:15:53 @collection.py:152] Size of these collections were changed in tower1: (tf.GraphKeys.MODEL_VARIABLES: 183->238)
[0722 08:15:53 @collection.py:165] These collections were modified but restored in tower1: (tf.GraphKeys.SUMMARIES: 80->81)
[0722 08:15:59 @training.py:351] 'sync_variables_from_main_tower' includes 643 operations.
[0722 08:15:59 @model_utils.py:67] List of Trainable Variables: 
name                                 shape                 #elements
-----------------------------------  ------------------  -----------
group1/block0/conv1/W                [1, 1, 256, 128]          32768
group1/block0/conv1/bn/gamma         [128]                       128
group1/block0/conv1/bn/beta          [128]                       128
group1/block0/conv2/W                [3, 3, 128, 128]         147456
group1/block0/conv2/bn/gamma         [128]                       128
group1/block0/conv2/bn/beta          [128]                       128
group1/block0/conv3/W                [1, 1, 128, 512]          65536
group1/block0/conv3/bn/gamma         [512]                       512
group1/block0/conv3/bn/beta          [512]                       512
group1/block0/convshortcut/W         [1, 1, 256, 512]         131072
group1/block0/convshortcut/bn/gamma  [512]                       512
group1/block0/convshortcut/bn/beta   [512]                       512
group1/block1/conv1/W                [1, 1, 512, 128]          65536
group1/block1/conv1/bn/gamma         [128]                       128
group1/block1/conv1/bn/beta          [128]                       128
group1/block1/conv2/W                [3, 3, 128, 128]         147456
group1/block1/conv2/bn/gamma         [128]                       128
group1/block1/conv2/bn/beta          [128]                       128
group1/block1/conv3/W                [1, 1, 128, 512]          65536
group1/block1/conv3/bn/gamma         [512]                       512
group1/block1/conv3/bn/beta          [512]                       512
group1/block2/conv1/W                [1, 1, 512, 128]          65536
group1/block2/conv1/bn/gamma         [128]                       128
group1/block2/conv1/bn/beta          [128]                       128
group1/block2/conv2/W                [3, 3, 128, 128]         147456
group1/block2/conv2/bn/gamma         [128]                       128
group1/block2/conv2/bn/beta          [128]                       128
group1/block2/conv3/W                [1, 1, 128, 512]          65536
group1/block2/conv3/bn/gamma         [512]                       512
group1/block2/conv3/bn/beta          [512]                       512
group1/block3/conv1/W                [1, 1, 512, 128]          65536
group1/block3/conv1/bn/gamma         [128]                       128
group1/block3/conv1/bn/beta          [128]                       128
group1/block3/conv2/W                [3, 3, 128, 128]         147456
group1/block3/conv2/bn/gamma         [128]                       128
group1/block3/conv2/bn/beta          [128]                       128
group1/block3/conv3/W                [1, 1, 128, 512]          65536
group1/block3/conv3/bn/gamma         [512]                       512
group1/block3/conv3/bn/beta          [512]                       512
group2/block0/conv1/W                [1, 1, 512, 256]         131072
group2/block0/conv1/bn/gamma         [256]                       256
group2/block0/conv1/bn/beta          [256]                       256
group2/block0/conv2/W                [3, 3, 256, 256]         589824
group2/block0/conv2/bn/gamma         [256]                       256
group2/block0/conv2/bn/beta          [256]                       256
group2/block0/conv3/W                [1, 1, 256, 1024]        262144
group2/block0/conv3/bn/gamma         [1024]                     1024
group2/block0/conv3/bn/beta          [1024]                     1024
group2/block0/convshortcut/W         [1, 1, 512, 1024]        524288
group2/block0/convshortcut/bn/gamma  [1024]                     1024
group2/block0/convshortcut/bn/beta   [1024]                     1024
group2/block1/conv1/W                [1, 1, 1024, 256]        262144
group2/block1/conv1/bn/gamma         [256]                       256
group2/block1/conv1/bn/beta          [256]                       256
group2/block1/conv2/W                [3, 3, 256, 256]         589824
group2/block1/conv2/bn/gamma         [256]                       256
group2/block1/conv2/bn/beta          [256]                       256
group2/block1/conv3/W                [1, 1, 256, 1024]        262144
group2/block1/conv3/bn/gamma         [1024]                     1024
group2/block1/conv3/bn/beta          [1024]                     1024
group2/block2/conv1/W                [1, 1, 1024, 256]        262144
group2/block2/conv1/bn/gamma         [256]                       256
group2/block2/conv1/bn/beta          [256]                       256
group2/block2/conv2/W                [3, 3, 256, 256]         589824
group2/block2/conv2/bn/gamma         [256]                       256
group2/block2/conv2/bn/beta          [256]                       256
group2/block2/conv3/W                [1, 1, 256, 1024]        262144
group2/block2/conv3/bn/gamma         [1024]                     1024
group2/block2/conv3/bn/beta          [1024]                     1024
group2/block3/conv1/W                [1, 1, 1024, 256]        262144
group2/block3/conv1/bn/gamma         [256]                       256
group2/block3/conv1/bn/beta          [256]                       256
group2/block3/conv2/W                [3, 3, 256, 256]         589824
group2/block3/conv2/bn/gamma         [256]                       256
group2/block3/conv2/bn/beta          [256]                       256
group2/block3/conv3/W                [1, 1, 256, 1024]        262144
group2/block3/conv3/bn/gamma         [1024]                     1024
group2/block3/conv3/bn/beta          [1024]                     1024
group2/block4/conv1/W                [1, 1, 1024, 256]        262144
group2/block4/conv1/bn/gamma         [256]                       256
group2/block4/conv1/bn/beta          [256]                       256
group2/block4/conv2/W                [3, 3, 256, 256]         589824
group2/block4/conv2/bn/gamma         [256]                       256
group2/block4/conv2/bn/beta          [256]                       256
group2/block4/conv3/W                [1, 1, 256, 1024]        262144
group2/block4/conv3/bn/gamma         [1024]                     1024
group2/block4/conv3/bn/beta          [1024]                     1024
group2/block5/conv1/W                [1, 1, 1024, 256]        262144
group2/block5/conv1/bn/gamma         [256]                       256
group2/block5/conv1/bn/beta          [256]                       256
group2/block5/conv2/W                [3, 3, 256, 256]         589824
group2/block5/conv2/bn/gamma         [256]                       256
group2/block5/conv2/bn/beta          [256]                       256
group2/block5/conv3/W                [1, 1, 256, 1024]        262144
group2/block5/conv3/bn/gamma         [1024]                     1024
group2/block5/conv3/bn/beta          [1024]                     1024
group3/block0/conv1/W                [1, 1, 1024, 512]        524288
group3/block0/conv1/bn/gamma         [512]                       512
group3/block0/conv1/bn/beta          [512]                       512
group3/block0/conv2/W                [3, 3, 512, 512]        2359296
group3/block0/conv2/bn/gamma         [512]                       512
group3/block0/conv2/bn/beta          [512]                       512
group3/block0/conv3/W                [1, 1, 512, 2048]       1048576
group3/block0/conv3/bn/gamma         [2048]                     2048
group3/block0/conv3/bn/beta          [2048]                     2048
group3/block0/convshortcut/W         [1, 1, 1024, 2048]      2097152
group3/block0/convshortcut/bn/gamma  [2048]                     2048
group3/block0/convshortcut/bn/beta   [2048]                     2048
group3/block1/conv1/W                [1, 1, 2048, 512]       1048576
group3/block1/conv1/bn/gamma         [512]                       512
group3/block1/conv1/bn/beta          [512]                       512
group3/block1/conv2/W                [3, 3, 512, 512]        2359296
group3/block1/conv2/bn/gamma         [512]                       512
group3/block1/conv2/bn/beta          [512]                       512
group3/block1/conv3/W                [1, 1, 512, 2048]       1048576
group3/block1/conv3/bn/gamma         [2048]                     2048
group3/block1/conv3/bn/beta          [2048]                     2048
group3/block2/conv1/W                [1, 1, 2048, 512]       1048576
group3/block2/conv1/bn/gamma         [512]                       512
group3/block2/conv1/bn/beta          [512]                       512
group3/block2/conv2/W                [3, 3, 512, 512]        2359296
group3/block2/conv2/bn/gamma         [512]                       512
group3/block2/conv2/bn/beta          [512]                       512
group3/block2/conv3/W                [1, 1, 512, 2048]       1048576
group3/block2/conv3/bn/gamma         [2048]                     2048
group3/block2/conv3/bn/beta          [2048]                     2048
fpn/lateral_1x1_c2/W                 [1, 1, 256, 256]          65536
fpn/lateral_1x1_c2/b                 [256]                       256
fpn/lateral_1x1_c3/W                 [1, 1, 512, 256]         131072
fpn/lateral_1x1_c3/b                 [256]                       256
fpn/lateral_1x1_c4/W                 [1, 1, 1024, 256]        262144
fpn/lateral_1x1_c4/b                 [256]                       256
fpn/lateral_1x1_c5/W                 [1, 1, 2048, 256]        524288
fpn/lateral_1x1_c5/b                 [256]                       256
fpn/posthoc_3x3_p2/W                 [3, 3, 256, 256]         589824
fpn/posthoc_3x3_p2/b                 [256]                       256
fpn/posthoc_3x3_p3/W                 [3, 3, 256, 256]         589824
fpn/posthoc_3x3_p3/b                 [256]                       256
fpn/posthoc_3x3_p4/W                 [3, 3, 256, 256]         589824
fpn/posthoc_3x3_p4/b                 [256]                       256
fpn/posthoc_3x3_p5/W                 [3, 3, 256, 256]         589824
fpn/posthoc_3x3_p5/b                 [256]                       256
rpn/conv0/W                          [3, 3, 256, 256]         589824
rpn/conv0/b                          [256]                       256
rpn/class/W                          [1, 1, 256, 3]              768
rpn/class/b                          [3]                           3
rpn/box/W                            [1, 1, 256, 12]            3072
rpn/box/b                            [12]                         12
fastrcnn/fc6/W                       [12544, 1024]          12845056
fastrcnn/fc6/b                       [1024]                     1024
fastrcnn/fc7/W                       [1024, 1024]            1048576
fastrcnn/fc7/b                       [1024]                     1024
fastrcnn/outputs/class/W             [1024, 38]                38912
fastrcnn/outputs/class/b             [38]                         38
fastrcnn/outputs/box/W               [1024, 152]              155648
fastrcnn/outputs/box/b               [152]                       152
maskrcnn/fcn0/W                      [3, 3, 256, 256]         589824
maskrcnn/fcn0/b                      [256]                       256
maskrcnn/fcn1/W                      [3, 3, 256, 256]         589824
maskrcnn/fcn1/b                      [256]                       256
maskrcnn/fcn2/W                      [3, 3, 256, 256]         589824
maskrcnn/fcn2/b                      [256]                       256
maskrcnn/fcn3/W                      [3, 3, 256, 256]         589824
maskrcnn/fcn3/b                      [256]                       256
maskrcnn/deconv/W                    [2, 2, 256, 256]         262144
maskrcnn/deconv/b                    [256]                       256
maskrcnn/conv/W                      [1, 1, 256, 37]            9472
maskrcnn/conv/b                      [37]                         37
Number of trainable variables: 168
Number of parameters (elements): 43943666
Storage space needed for all trainable variables: 167.63MB
[0722 08:15:59 @base.py:209] Setup callbacks graph ...
[0722 08:16:12 @prof.py:271] [HostMemoryTracker] Free RAM in setup_graph() is 54.69 GB.
[0722 08:16:12 @tower.py:140] Building graph for predict tower 'tower-pred-0' on device /gpu:0 ...
…
box/W:0
/home/zysz1/python3/lib/python3.6/site-packages/tensorflow/python/ops/gradients_impl.py:100: UserWarning: Converting sparse IndexedSlices to a dense Tensor of unknown shape. This may consume a large amount of memory.
  ""Converting sparse IndexedSlices to a dense Tensor of unknown shape. ""
[0318 10:37:16 @training.py:347] 'sync_variables_from_main_tower' includes 0 operations.
[0318 10:37:16 @model_utils.py:64] Trainable Variables: 
name                            shape                    dim
------------------------------  ------------------  --------
group1/block0/conv1/W:0         [1, 1, 256, 128]       32768
group1/block0/conv2/W:0         [3, 3, 128, 128]      147456
group1/block0/conv3/W:0         [1, 1, 128, 512]       65536
group1/block0/convshortcut/W:0  [1, 1, 256, 512]      131072
group1/block1/conv1/W:0         [1, 1, 512, 128]       65536
group1/block1/conv2/W:0         [3, 3, 128, 128]      147456
group1/block1/conv3/W:0         [1, 1, 128, 512]       65536
group1/block2/conv1/W:0         [1, 1, 512, 128]       65536
group1/block2/conv2/W:0         [3, 3, 128, 128]      147456
group1/block2/conv3/W:0         [1, 1, 128, 512]       65536
group1/block3/conv1/W:0         [1, 1, 512, 128]       65536
group1/block3/conv2/W:0         [3, 3, 128, 128]      147456
group1/block3/conv3/W:0         [1, 1, 128, 512]       65536
group2/block0/conv1/W:0         [1, 1, 512, 256]      131072
group2/block0/conv2/W:0         [3, 3, 256, 256]      589824
group2/block0/conv3/W:0         [1, 1, 256, 1024]     262144
group2/block0/convshortcut/W:0  [1, 1, 512, 1024]     524288
group2/block1/conv1/W:0         [1, 1, 1024, 256]     262144
group2/block1/conv2/W:0         [3, 3, 256, 256]      589824
group2/block1/conv3/W:0         [1, 1, 256, 1024]     262144
group2/block2/conv1/W:0         [1, 1, 1024, 256]     262144
group2/block2/conv2/W:0         [3, 3, 256, 256]      589824
group2/block2/conv3/W:0         [1, 1, 256, 1024]     262144
group2/block3/conv1/W:0         [1, 1, 1024, 256]     262144
group2/block3/conv2/W:0         [3, 3, 256, 256]      589824
group2/block3/conv3/W:0         [1, 1, 256, 1024]     262144
group2/block4/conv1/W:0         [1, 1, 1024, 256]     262144
group2/block4/conv2/W:0         [3, 3, 256, 256]      589824
group2/block4/conv3/W:0         [1, 1, 256, 1024]     262144
group2/block5/conv1/W:0         [1, 1, 1024, 256]     262144
group2/block5/conv2/W:0         [3, 3, 256, 256]      589824
group2/block5/conv3/W:0         [1, 1, 256, 1024]     262144
group3/block0/conv1/W:0         [1, 1, 1024, 512]     524288
group3/block0/conv2/W:0         [3, 3, 512, 512]     2359296
group3/block0/conv3/W:0         [1, 1, 512, 2048]    1048576
group3/block0/convshortcut/W:0  [1, 1, 1024, 2048]   2097152
group3/block1/conv1/W:0         [1, 1, 2048, 512]    1048576
group3/block1/conv2/W:0         [3, 3, 512, 512]     2359296
group3/block1/conv3/W:0         [1, 1, 512, 2048]    1048576
group3/block2/conv1/W:0         [1, 1, 2048, 512]    1048576
group3/block2/conv2/W:0         [3, 3, 512, 512]     2359296
group3/block2/conv3/W:0         [1, 1, 512, 2048]    1048576
fpn/lateral_1x1_c2/W:0          [1, 1, 256, 256]       65536
fpn/lateral_1x1_c2/b:0          [256]                    256
fpn/lateral_1x1_c3/W:0          [1, 1, 512, 256]      131072
fpn/lateral_1x1_c3/b:0          [256]                    256
fpn/lateral_1x1_c4/W:0          [1, 1, 1024, 256]     262144
fpn/lateral_1x1_c4/b:0          [256]                    256
fpn/lateral_1x1_c5/W:0          [1, 1, 2048, 256]     524288
fpn/lateral_1x1_c5/b:0          [256]                    256
fpn/posthoc_3x3_p2/W:0          [3, 3, 256, 256]      589824
fpn/posthoc_3x3_p2/b:0          [256]                    256
fpn/posthoc_3x3_p3/W:0          [3, 3, 256, 256]      589824
fpn/posthoc_3x3_p3/b:0          [256]                    256
fpn/posthoc_3x3_p4/W:0          [3, 3, 256, 256]      589824
fpn/posthoc_3x3_p4/b:0          [256]                    256
fpn/posthoc_3x3_p5/W:0          [3, 3, 256, 256]      589824
fpn/posthoc_3x3_p5/b:0          [256]                    256
rpn/conv0/W:0                   [3, 3, 256, 256]      589824
rpn/conv0/b:0                   [256]                    256
rpn/class/W:0                   [1, 1, 256, 3]           768
rpn/class/b:0                   [3]                        3
rpn/box/W:0                     [1, 1, 256, 12]         3072
rpn/box/b:0                     [12]                      12
fastrcnn/fc6/W:0                [12544, 1024]       12845056
fastrcnn/fc6/b:0                [1024]                  1024
fastrcnn/fc7/W:0                [1024, 1024]         1048576
fastrcnn/fc7/b:0                [1024]                  1024
fastrcnn/outputs/class/W:0      [1024, 6]               6144
fastrcnn/outputs/class/b:0      [6]                        6
fastrcnn/outputs/box/W:0        [1024, 24]             24576
fastrcnn/outputs/box/b:0        [24]                      24
Total #vars=72, #params=41097261, size=156.77MB
[0318 10:37:16 @base.py:208] Setup callbacks graph ...
[0318 10:37:16 @argtools.py:146] WRN ""import prctl"" failed! Install python-prctl so that processes can be cleaned with guarantee.
[0318 10:37:17 @tower.py:130] Building graph for predict tower 'tower-pred-0' on device /gpu:0 ...
[0318 10:37:20 @collection.py:151] Size of these collections were changed in tower-pred-0: (tf.GraphKeys.MODEL_VARIABLES: 11->22)
…
[0703 07:51:16 @alexnet-dorefa.py:79] Quantizing weight tower3/conv3/W
[0703 07:51:16 @alexnet-dorefa.py:79] Quantizing weight tower3/conv4/W
[0703 07:51:16 @alexnet-dorefa.py:79] Quantizing weight tower3/fc0/W
[0703 07:51:16 @alexnet-dorefa.py:79] Quantizing weight tower3/fc1/W
[0703 07:51:16 @regularize.py:88] regularize_cost() found 3 variables to regularize.
[0703 07:51:18 @training.py:318] 'sync_variables_from_main_tower' includes 243 operations.
[0703 07:51:18 @model_utils.py:63] Trainable Variables: 
name           shape                  dim
-------------  ----------------  --------
conv0/W:0      [12, 12, 3, 96]      41472
conv0/b:0      [96]                    96
conv1/W:0      [5, 5, 48, 256]     307200
bn1/beta:0     [256]                  256
bn1/gamma:0    [256]                  256
conv2/W:0      [3, 3, 256, 384]    884736
bn2/beta:0     [384]                  384
bn2/gamma:0    [384]                  384
conv3/W:0      [3, 3, 192, 384]    663552
bn3/beta:0     [384]                  384
bn3/gamma:0    [384]                  384
conv4/W:0      [3, 3, 192, 256]    442368
bn4/beta:0     [256]                  256
bn4/gamma:0    [256]                  256
fc0/W:0        [9216, 4096]      37748736
fc0/b:0        [4096]                4096
bnfc0/beta:0   [4096]                4096
bnfc0/gamma:0  [4096]                4096
fc1/W:0        [4096, 4096]      16777216
bnfc1/beta:0   [4096]                4096
bnfc1/gamma:0  [4096]                4096
fct/W:0        [4096, 1000]       4096000
fct/b:0        [1000]                1000
Total #vars=23, #params=60985416, size=232.64MB
[0703 07:51:18 @base.py:174] Setup callbacks graph ...
[0703 07:51:18 @parallel.py:52] WRN TENSORPACK_PIPEDIR is not used on Linux any more! Abstract sockets will be used.
Traceback (most recent call last):
  File ""./alexnet-dorefa.py"", line 227, in <module>
    launch_train_with_config(config, SyncMultiGPUTrainerReplicated(nr_tower))
…
385525330,Oh if you're using the mnist-keras-v2.py example -- it's not written with Keras's functional API (unlike imagenet-resnet-keras.py example). It is not very obvious to me how to get tensor's name with Keras's container API.,oh example written functional unlike example obvious get tensor name container,issue,negative,neutral,neutral,neutral,neutral,neutral
385522743,"What Keras prints does not necessarily correspond to tensor names. It's up to Keras what it prints and I have no control over that.
You can use `print` (the python builtin function) to see the name of a tensor.",necessarily correspond tensor control use print python function see name tensor,issue,negative,neutral,neutral,neutral,neutral,neutral
385522169,"so I used the mnist-keras-v2.py to do the test, i print the model summary:

conv2d_1 (Conv2D)            (None, 28, 28, 32)        320       
_________________________________________________________________
max_pooling2d_1 (MaxPooling2 (None, 14, 14, 32)        0         
_________________________________________________________________
conv2d_2 (Conv2D)            (None, 14, 14, 32)        9248      
_________________________________________________________________
conv2d_3 (Conv2D)            (None, 14, 14, 32)        9248      
_________________________________________________________________
max_pooling2d_2 (MaxPooling2 (None, 7, 7, 32)          0         
_________________________________________________________________
conv2d_4 (Conv2D)            (None, 7, 7, 32)          9248      
_________________________________________________________________
flatten_1 (Flatten)          (None, 1568)              0         
_________________________________________________________________
dense_1 (Dense)              (None, 512)               803328    
_________________________________________________________________
dropout_1 (Dropout)          (None, 512)               0         
_________________________________________________________________
dense_2 (Dense)              (None, 10)                5130      
_________________________________________________________________
activation_1 (Activation)    (None, 10)                0         


Total params: 836,522
Trainable params: 836,522
Non-trainable params: 0

-------------------------------------------------------------------------------------------------------------------
Then I directly use the ""activation_1"" layer name as the output name, but I still got the error:
KeyError: ""The name 'activation_1:0' refers to a Tensor which does not exist. The operation, 'activation_1', does not exist in the graph.""
…
ESC[32m[0426 10:25:26 @regularize.py:19]ESC[0m The following tensors will be regularized: conv0/W:0, group0/block0/conv1/W:0, group0/block0/conv2/W:0, group0/block1/conv1/W:0, group0/block1/conv2/W:0, group1/block0/conv1/W:0, group1/bloc
k0/conv2/W:0, group1/block0/convshortcut/W:0, group1/block1/conv1/W:0, group1/block1/conv2/W:0, group2/block0/conv1/W:0, group2/block0/conv2/W:0, group2/block0/convshortcut/W:0, group2/block1/conv1/W:0, group2/block1/conv2/W:0, group3/bl
ock0/conv1/W:0, group3/block0/conv2/W:0, group3/block0/convshortcut/W:0, group3/block1/conv1/W:0, group3/block1/conv2/W:0, linear/W:0, linear_2/W:0
ESC[32m[0426 10:25:26 @training.py:102]ESC[0m Building graph for training tower 1 ...

group3/block0/conv2/W:0          [3, 3, 512, 512]  2359296
group3/block0/convshortcut/W:0   [1, 1, 256, 512]   131072
group3/block1/preact/bn/gamma:0  [512]                 512
group3/block1/preact/bn/beta:0   [512]                 512
group3/block1/conv1/W:0          [3, 3, 512, 512]  2359296
group3/block1/conv1/bn/gamma:0   [512]                 512
group3/block1/conv1/bn/beta:0    [512]                 512
group3/block1/conv2/W:0          [3, 3, 512, 512]  2359296
bnlast/bn/gamma:0                [512]                 512
bnlast/bn/beta:0                 [512]                 512
linear/W:0                       [512, 1000]        512000
linear/b:0                       [1000]               1000
linear_2/W:0                     [512, 1000]        512000
linear_2/b:0                     [1000]               1000ESC[36m
Total #vars=58, #params=12200720, size=46.54MBESC[0m
ESC[32m[0426 10:25:27 @base.py:142]ESC[0m Setup callbacks graph ...
ESC[32m[0426 10:25:27 @predict.py:42]ESC[0m Building predictor tower 'InferenceTower' on device /gpu:0 ...
ESC[32m[0426 10:25:27 @collection.py:165]ESC[0m These collections were modified but restored in InferenceTower: (tf.GraphKeys.SUMMARIES: 7->8)
…
[32m[1027 00:21:09 @regularize.py:108][0m Add REGULARIZATION_LOSSES of 58 tensors on the total cost.
[32m[1027 00:21:11 @training.py:92][0m Building graph for training tower 1 on device LeastLoadedDeviceSetter-/gpu:1...
[32m[1027 00:21:11 @regularize.py:108][0m Add REGULARIZATION_LOSSES of 58 tensors on the total cost.
[32m[1027 00:21:13 @model_utils.py:47][0m [36mModel Parameters: 
[0mname                                            shape                   dim  device
----------------------------------------------  ------------------  -------  -------------
conv_s/weights:0                                [3, 3, 3, 32]           864  /device:GPU:0
conv_s/batch_norm/gamma:0                       [32]                     32  /device:GPU:1
conv_s/batch_norm/beta:0                        [32]                     32  /device:GPU:1
conv_1_0/conv1/conv/weights:0                   [3, 3, 32, 1]           288  /device:GPU:1
conv_1_0/conv1/batch_norm/gamma:0               [32]                     32  /device:GPU:1
conv_1_0/conv1/batch_norm/beta:0                [32]                     32  /device:GPU:1
conv_1_0/conv2/weights:0                        [1, 1, 32, 64]         2048  /device:GPU:1
conv_1_0/conv2/batch_norm/gamma:0               [64]                     64  /device:GPU:0
conv_1_0/conv2/batch_norm/beta:0                [64]                     64  /device:GPU:0
conv_1_1/conv1/conv/weights:0                   [3, 3, 64, 1]           576  /device:GPU:0
conv_1_1/conv1/batch_norm/gamma:0               [64]                     64  /device:GPU:0
conv_1_1/conv1/batch_norm/beta:0                [64]                     64  /device:GPU:0
conv_1_1/conv2/weights:0                        [1, 1, 64, 128]        8192  /device:GPU:0
conv_1_1/conv2/batch_norm/gamma:0               [128]                   128  /device:GPU:1
conv_1_1/conv2/batch_norm/beta:0                [128]                   128  /device:GPU:1
conv_1_2/conv1/conv/weights:0                   [3, 3, 128, 1]         1152  /device:GPU:1
conv_1_2/conv1/batch_norm/gamma:0               [128]                   128  /device:GPU:1
conv_1_2/conv1/batch_norm/beta:0                [128]                   128  /device:GPU:1
conv_1_2/conv2/weights:0                        [1, 1, 128, 128]      16384  /device:GPU:1
conv_1_2/conv2/batch_norm/gamma:0               [128]                   128  /device:GPU:0
conv_1_2/conv2/batch_norm/beta:0                [128]                   128  /device:GPU:0
conv_1_3/conv1/conv/weights:0                   [3, 3, 128, 1]         1152  /device:GPU:0
conv_1_3/conv1/batch_norm/gamma:0               [128]                   128  /device:GPU:0
conv_1_3/conv1/batch_norm/beta:0                [128]                   128  /device:GPU:0
conv_1_3/conv2/weights:0                        [1, 1, 128, 256]      32768  /device:GPU:0
conv_1_3/conv2/batch_norm/gamma:0               [256]                   256  /device:GPU:1
conv_1_3/conv2/batch_norm/beta:0                [256]                   256  /device:GPU:1
conv_1_4/conv1/conv/weights:0                   [3, 3, 256, 1]         2304  /device:GPU:1
conv_1_4/conv1/batch_norm/gamma:0               [256]                   256  /device:GPU:1
conv_1_4/conv1/batch_norm/beta:0                [256]                   256  /device:GPU:1
conv_1_4/conv2/weights:0                        [1, 1, 256, 256]      65536  /device:GPU:1
conv_1_4/conv2/batch_norm/gamma:0               [256]                   256  /device:GPU:0
conv_1_4/conv2/batch_norm/beta:0                [256]                   256  /device:GPU:0
conv_1_5/conv1/conv/weights:0                   [3, 3, 256, 1]         2304  /device:GPU:0
conv_1_5/conv1/batch_norm/gamma:0               [256]                   256  /device:GPU:0
conv_1_5/conv1/batch_norm/beta:0                [256]                   256  /device:GPU:0
conv_1_5/conv2/weights:0                        [1, 1, 256, 512]     131072  /device:GPU:0
conv_1_5/conv2/batch_norm/gamma:0               [512]                   512  /device:GPU:1
conv_1_5/conv2/batch_norm/beta:0                [512]                   512  /device:GPU:1
conv_2/group_0_conv0/conv/weights:0             [1, 1, 4, 1, 1]           4  /device:GPU:1
conv_2/group_0/conv_0/conv1/conv/weights:0      [3, 3, 128, 1]         1152  /device:GPU:1
conv_2/group_0/conv_0/conv1/batch_norm/gamma:0  [128]                   128  /device:GPU:1
conv_2/group_0/conv_0/conv1/batch_norm/beta:0   [128]                   128  /device:GPU:1
conv_2/group_0/conv_0/conv2/weights:0           [1, 1, 128, 128]      16384  /device:GPU:1
conv_2/group_0/conv_0/conv2/batch_norm/gamma:0  [128]                   128  /device:GPU:1
conv_2/group_0/conv_0/conv2/batch_norm/beta:0   [128]                   128  /device:GPU:1
conv_2/group_0/conv_1/conv1/conv/weights:0      [3, 3, 128, 1]         1152  /device:GPU:1
conv_2/group_0/conv_1/conv1/batch_norm/gamma:0  [128]                   128  /device:GPU:1
conv_2/group_0/conv_1/conv1/batch_norm/beta:0   [128]                   128  /device:GPU:1
conv_2/group_0/conv_1/conv2/weights:0           [1, 1, 128, 128]      16384  /device:GPU:1
conv_2/group_0/conv_1/conv2/batch_norm/gamma:0  [128]                   128  /device:GPU:1
conv_2/group_0/conv_1/conv2/batch_norm/beta:0   [128]                   128  /device:GPU:1
conv_2/group_0/conv_2/conv1/conv/weights:0      [3, 3, 128, 1]         1152  /device:GPU:1
conv_2/group_0/conv_2/conv1/batch_norm/gamma:0  [128]                   128  /device:GPU:1
conv_2/group_0/conv_2/conv1/batch_norm/beta:0   [128]                   128  /device:GPU:1
conv_2/group_0/conv_2/conv2/weights:0           [1, 1, 128, 128]      16384  /device:GPU:1
conv_2/group_0/conv_2/conv2/batch_norm/gamma:0  [128]                   128  /device:GPU:1
conv_2/group_0/conv_2/conv2/batch_norm/beta:0   [128]                   128  /device:GPU:1
conv_2/group_0/conv_3/conv1/conv/weights:0      [3, 3, 128, 1]         1152  /device:GPU:1
conv_2/group_0/conv_3/conv1/batch_norm/gamma:0  [128]                   128  /device:GPU:1
conv_2/group_0/conv_3/conv1/batch_norm/beta:0   [128]                   128  /device:GPU:1
conv_2/group_0/conv_3/conv2/weights:0           [1, 1, 128, 128]      16384  /device:GPU:1
conv_2/group_0/conv_3/conv2/batch_norm/gamma:0  [128]                   128  /device:GPU:1
conv_2/group_0/conv_3/conv2/batch_norm/beta:0   [128]                   128  /device:GPU:1
conv_2/group_0/conv_4/conv1/conv/weights:0      [3, 3, 128, 1]         1152  /device:GPU:1
conv_2/group_0/conv_4/conv1/batch_norm/gamma:0  [128]                   128  /device:GPU:1
conv_2/group_0/conv_4/conv1/batch_norm/beta:0   [128]                   128  /device:GPU:1
conv_2/group_0/conv_4/conv2/weights:0           [1, 1, 128, 128]      16384  /device:GPU:1
conv_2/group_0/conv_4/conv2/batch_norm/gamma:0  [128]                   128  /device:GPU:0
conv_2/group_0/conv_4/conv2/batch_norm/beta:0   [128]                   128  /device:GPU:0
conv_2/group_1_conv0/conv/weights:0             [1, 1, 4, 1, 1]           4  /device:GPU:0
conv_2/group_1/conv_0/conv1/conv/weights:0      [3, 3, 128, 1]         1152  /device:GPU:0
conv_2/group_1/conv_0/conv1/batch_norm/gamma:0  [128]                   128  /device:GPU:0
conv_2/group_1/conv_0/conv1/batch_norm/beta:0   [128]                   128  /device:GPU:0
conv_2/group_1/conv_0/conv2/weights:0           [1, 1, 128, 128]      16384  /device:GPU:0
conv_2/group_1/conv_0/conv2/batch_norm/gamma:0  [128]                   128  /device:GPU:1
conv_2/group_1/conv_0/conv2/batch_norm/beta:0   [128]                   128  /device:GPU:1
conv_2/group_1/conv_1/conv1/conv/weights:0      [3, 3, 128, 1]         1152  /device:GPU:1
conv_2/group_1/conv_1/conv1/batch_norm/gamma:0  [128]                   128  /device:GPU:1
conv_2/group_1/conv_1/conv1/batch_norm/beta:0   [128]                   128  /device:GPU:1
conv_2/group_1/conv_1/conv2/weights:0           [1, 1, 128, 128]      16384  /device:GPU:1
conv_2/group_1/conv_1/conv2/batch_norm/gamma:0  [128]                   128  /device:GPU:0
conv_2/group_1/conv_1/conv2/batch_norm/beta:0   [128]                   128  /device:GPU:0
conv_2/group_1/conv_2/conv1/conv/weights:0      [3, 3, 128, 1]         1152  /device:GPU:0
conv_2/group_1/conv_2/conv1/batch_norm/gamma:0  [128]                   128  /device:GPU:0
conv_2/group_1/conv_2/conv1/batch_norm/beta:0   [128]                   128  /device:GPU:0
conv_2/group_1/conv_2/conv2/weights:0           [1, 1, 128, 128]      16384  /device:GPU:0
conv_2/group_1/conv_2/conv2/batch_norm/gamma:0  [128]                   128  /device:GPU:1
conv_2/group_1/conv_2/conv2/batch_norm/beta:0   [128]                   128  /device:GPU:1
conv_2/group_1/conv_3/conv1/conv/weights:0      [3, 3, 128, 1]         1152  /device:GPU:1
conv_2/group_1/conv_3/conv1/batch_norm/gamma:0  [128]                   128  /device:GPU:1
conv_2/group_1/conv_3/conv1/batch_norm/beta:0   [128]                   128  /device:GPU:1
conv_2/group_1/conv_3/conv2/weights:0           [1, 1, 128, 128]      16384  /device:GPU:1
conv_2/group_1/conv_3/conv2/batch_norm/gamma:0  [128]                   128  /device:GPU:0
conv_2/group_1/conv_3/conv2/batch_norm/beta:0   [128]                   128  /device:GPU:0
conv_2/group_1/conv_4/conv1/conv/weights:0      [3, 3, 128, 1]         1152  /device:GPU:0
conv_2/group_1/conv_4/conv1/batch_norm/gamma:0  [128]                   128  /device:GPU:0
conv_2/group_1/conv_4/conv1/batch_norm/beta:0   [128]                   128  /device:GPU:0
conv_2/group_1/conv_4/conv2/weights:0           [1, 1, 128, 128]      16384  /device:GPU:0
conv_2/group_1/conv_4/conv2/batch_norm/gamma:0  [128]                   128  /device:GPU:1
conv_2/group_1/conv_4/conv2/batch_norm/beta:0   [128]                   128  /device:GPU:1
conv_2/group_2_conv0/conv/weights:0             [1, 1, 4, 1, 1]           4  /device:GPU:1
conv_2/group_2/conv_0/conv1/conv/weights:0      [3, 3, 128, 1]         1152  /device:GPU:1
conv_2/group_2/conv_0/conv1/batch_norm/gamma:0  [128]                   128  /device:GPU:1
conv_2/group_2/conv_0/conv1/batch_norm/beta:0   [128]                   128  /device:GPU:1
conv_2/group_2/conv_0/conv2/weights:0           [1, 1, 128, 128]      16384  /device:GPU:1
conv_2/group_2/conv_0/conv2/batch_norm/gamma:0  [128]                   128  /device:GPU:0
conv_2/group_2/conv_0/conv2/batch_norm/beta:0   [128]                   128  /device:GPU:0
conv_2/group_2/conv_1/conv1/conv/weights:0      [3, 3, 128, 1]         1152  /device:GPU:0
conv_2/group_2/conv_1/conv1/batch_norm/gamma:0  [128]                   128  /device:GPU:0
conv_2/group_2/conv_1/conv1/batch_norm/beta:0   [128]                   128  /device:GPU:0
conv_2/group_2/conv_1/conv2/weights:0           [1, 1, 128, 128]      16384  /device:GPU:0
conv_2/group_2/conv_1/conv2/batch_norm/gamma:0  [128]                   128  /device:GPU:1
conv_2/group_2/conv_1/conv2/batch_norm/beta:0   [128]                   128  /device:GPU:1
conv_2/group_2/conv_2/conv1/conv/weights:0      [3, 3, 128, 1]         1152  /device:GPU:1
conv_2/group_2/conv_2/conv1/batch_norm/gamma:0  [128]                   128  /device:GPU:1
conv_2/group_2/conv_2/conv1/batch_norm/beta:0   [128]                   128  /device:GPU:1
conv_2/group_2/conv_2/conv2/weights:0           [1, 1, 128, 128]      16384  /device:GPU:1
conv_2/group_2/conv_2/conv2/batch_norm/gamma:0  [128]                   128  /device:GPU:0
conv_2/group_2/conv_2/conv2/batch_norm/beta:0   [128]                   128  /device:GPU:0
conv_2/group_2/conv_3/conv1/conv/weights:0      [3, 3, 128, 1]         1152  /device:GPU:0
conv_2/group_2/conv_3/conv1/batch_norm/gamma:0  [128]                   128  /device:GPU:0
conv_2/group_2/conv_3/conv1/batch_norm/beta:0   [128]                   128  /device:GPU:0
conv_2/group_2/conv_3/conv2/weights:0           [1, 1, 128, 128]      16384  /device:GPU:0
conv_2/group_2/conv_3/conv2/batch_norm/gamma:0  [128]                   128  /device:GPU:1
conv_2/group_2/conv_3/conv2/batch_norm/beta:0   [128]                   128  /device:GPU:1
conv_2/group_2/conv_4/conv1/conv/weights:0      [3, 3, 128, 1]         1152  /device:GPU:1
conv_2/group_2/conv_4/conv1/batch_norm/gamma:0  [128]                   128  /device:GPU:1
conv_2/group_2/conv_4/conv1/batch_norm/beta:0   [128]                   128  /device:GPU:1
conv_2/group_2/conv_4/conv2/weights:0           [1, 1, 128, 128]      16384  /device:GPU:1
conv_2/group_2/conv_4/conv2/batch_norm/gamma:0  [128]                   128  /device:GPU:0
conv_2/group_2/conv_4/conv2/batch_norm/beta:0   [128]                   128  /device:GPU:0
conv_2/group_3_conv0/conv/weights:0             [1, 1, 4, 1, 1]           4  /device:GPU:0
conv_2/group_3/conv_0/conv1/conv/weights:0      [3, 3, 128, 1]         1152  /device:GPU:0
conv_2/group_3/conv_0/conv1/batch_norm/gamma:0  [128]                   128  /device:GPU:0
conv_2/group_3/conv_0/conv1/batch_norm/beta:0   [128]                   128  /device:GPU:0
conv_2/group_3/conv_0/conv2/weights:0           [1, 1, 128, 128]      16384  /device:GPU:0
conv_2/group_3/conv_0/conv2/batch_norm/gamma:0  [128]                   128  /device:GPU:1
conv_2/group_3/conv_0/conv2/batch_norm/beta:0   [128]                   128  /device:GPU:1
conv_2/group_3/conv_1/conv1/conv/weights:0      [3, 3, 128, 1]         1152  /device:GPU:1
conv_2/group_3/conv_1/conv1/batch_norm/gamma:0  [128]                   128  /device:GPU:1
conv_2/group_3/conv_1/conv1/batch_norm/beta:0   [128]                   128  /device:GPU:1
conv_2/group_3/conv_1/conv2/weights:0           [1, 1, 128, 128]      16384  /device:GPU:1
conv_2/group_3/conv_1/conv2/batch_norm/gamma:0  [128]                   128  /device:GPU:0
conv_2/group_3/conv_1/conv2/batch_norm/beta:0   [128]                   128  /device:GPU:0
conv_2/group_3/conv_2/conv1/conv/weights:0      [3, 3, 128, 1]         1152  /device:GPU:0
conv_2/group_3/conv_2/conv1/batch_norm/gamma:0  [128]                   128  /device:GPU:0
conv_2/group_3/conv_2/conv1/batch_norm/beta:0   [128]                   128  /device:GPU:0
conv_2/group_3/conv_2/conv2/weights:0           [1, 1, 128, 128]      16384  /device:GPU:0
conv_2/group_3/conv_2/conv2/batch_norm/gamma:0  [128]                   128  /device:GPU:1
conv_2/group_3/conv_2/conv2/batch_norm/beta:0   [128]                   128  /device:GPU:1
conv_2/group_3/conv_3/conv1/conv/weights:0      [3, 3, 128, 1]         1152  /device:GPU:1
conv_2/group_3/conv_3/conv1/batch_norm/gamma:0  [128]                   128  /device:GPU:1
conv_2/group_3/conv_3/conv1/batch_norm/beta:0   [128]                   128  /device:GPU:1
conv_2/group_3/conv_3/conv2/weights:0           [1, 1, 128, 128]      16384  /device:GPU:1
conv_2/group_3/conv_3/conv2/batch_norm/gamma:0  [128]                   128  /device:GPU:0
conv_2/group_3/conv_3/conv2/batch_norm/beta:0   [128]                   128  /device:GPU:0
conv_2/group_3/conv_4/conv1/conv/weights:0      [3, 3, 128, 1]         1152  /device:GPU:0
conv_2/group_3/conv_4/conv1/batch_norm/gamma:0  [128]                   128  /device:GPU:0
conv_2/group_3/conv_4/conv1/batch_norm/beta:0   [128]                   128  /device:GPU:0
conv_2/group_3/conv_4/conv2/weights:0           [1, 1, 128, 128]      16384  /device:GPU:0
conv_2/group_3/conv_4/conv2/batch_norm/gamma:0  [128]                   128  /device:GPU:1
conv_2/group_3/conv_4/conv2/batch_norm/beta:0   [128]                   128  /device:GPU:1
conv_3_0/conv1/conv/weights:0                   [3, 3, 512, 1]         4608  /device:GPU:1
conv_3_0/conv1/batch_norm/gamma:0               [512]                   512  /device:GPU:1
conv_3_0/conv1/batch_norm/beta:0                [512]                   512  /device:GPU:1
conv_3_0/conv2/weights:0                        [1, 1, 512, 1024]    524288  /device:GPU:1
conv_3_0/conv2/batch_norm/gamma:0               [1024]                 1024  /device:GPU:0
conv_3_0/conv2/batch_norm/beta:0                [1024]                 1024  /device:GPU:0
conv_3_1/conv1/conv/weights:0                   [3, 3, 1024, 1]        9216  /device:GPU:0
conv_3_1/conv1/batch_norm/gamma:0               [1024]                 1024  /device:GPU:0
conv_3_1/conv1/batch_norm/beta:0                [1024]                 1024  /device:GPU:0
conv_3_1/conv2/weights:0                        [1, 1, 1024, 1024]  1048576  /device:GPU:0
conv_3_1/conv2/batch_norm/gamma:0               [1024]                 1024  /device:GPU:1
conv_3_1/conv2/batch_norm/beta:0                [1024]                 1024  /device:GPU:1
out/pool/batch_norm/gamma:0                     [1024]                 1024  /device:GPU:1
out/pool/batch_norm/beta:0                      [1024]                 1024  /device:GPU:1
out/dense/weights:0                             [1024, 1000]        1024000  /device:GPU:1
out/dense/biases:0                              [1000]                 1000  /device:GPU:0[36m
Total #vars=179, #param=3251000 (12.40 MB assuming all float32)[0m
[32m[1027 00:21:13 @base.py:207][0m Setup callbacks graph ...
[32m[1027 00:21:15 @input_source.py:178][0m Setting up the queue 'DataParallelInferenceRunner/QueueInput/input_queue' for CPU prefetching ...
[32m[1027 00:21:15 @predictor_factory.py:54][0m Building predictor tower 'InferenceTower0' on device /gpu:0 ...
…
If you use the same batch size in `get_data()`, the total batch size would be doubled when you use a multigpu trainer.",would depend write use batch size total batch size would doubled use trainer,issue,negative,neutral,neutral,neutral,neutral,neutral
319039380,"when I run with 1 GPU,the progress bar print the throughput like this ""99/590[00:50<03:23,2.41it/s"". when I use 2 GPU's by changing the 'CUDA_VISIBLE_DEVICES',the progress bar print the same value.
At the begin, there are some log like this:
[0731 19:01:07 @model_utils.py:47] Model Parameters: 
name         shape                   dim  device
-----------  ----------------  ---------  -------------
conv1_1/W:0  [3, 3, 3, 64]          1728  /device:GPU:0
conv1_1/b:0  [64]                     64  /device:GPU:1
conv1_2/W:0  [3, 3, 64, 64]        36864  /device:GPU:1
conv1_2/b:0  [64]                     64  /device:GPU:0
conv2_1/W:0  [3, 3, 64, 128]       73728  /device:GPU:0
conv2_1/b:0  [128]                   128  /device:GPU:1
conv2_2/W:0  [3, 3, 128, 128]     147456  /device:GPU:1
conv2_2/b:0  [128]                   128  /device:GPU:0
conv3_1/W:0  [3, 3, 128, 256]     294912  /device:GPU:0
conv3_1/b:0  [256]                   256  /device:GPU:1
conv3_2/W:0  [3, 3, 256, 256]     589824  /device:GPU:1
conv3_2/b:0  [256]                   256  /device:GPU:0
conv3_3/W:0  [3, 3, 256, 256]     589824  /device:GPU:0
conv3_3/b:0  [256]                   256  /device:GPU:1
conv4_1/W:0  [3, 3, 256, 512]    1179648  /device:GPU:1
conv4_1/b:0  [512]                   512  /device:GPU:0
conv4_2/W:0  [3, 3, 512, 512]    2359296  /device:GPU:0
conv4_2/b:0  [512]                   512  /device:GPU:1
conv4_3/W:0  [3, 3, 512, 512]    2359296  /device:GPU:1
conv4_3/b:0  [512]                   512  /device:GPU:0
conv5_1/W:0  [3, 3, 512, 512]    2359296  /device:GPU:0
conv5_1/b:0  [512]                   512  /device:GPU:1
conv5_2/W:0  [3, 3, 512, 512]    2359296  /device:GPU:1
conv5_2/b:0  [512]                   512  /device:GPU:0
conv5_3/W:0  [3, 3, 512, 512]    2359296  /device:GPU:0
conv5_3/b:0  [512]                   512  /device:GPU:1
fc6/W:0      [25088, 4096]     102760448  /device:GPU:1
fc6/b:0      [4096]                 4096  /device:GPU:0
fc7/W:0      [4096, 4096]       16777216  /device:GPU:0
fc7/b:0      [4096]                 4096  /device:GPU:0
fc8/W:0      [4096, 2]              8192  /device:GPU:0
fc8/b:0      [2]                       2  /device:GPU:0
Total #vars=32, #param=134268738 (512.19 MB assuming all float32)


I think there are must be someting wrong

",run progress bar print throughput like use progress bar print value begin log like model name shape dim device total assuming float think must wrong,issue,positive,negative,negative,negative,negative,negative
319038019,"What do you mean "" the performance is the same as 1 GPU""?
…
